02_code_organisation/cookiecutter/MyNetworkDay1/models/model.pth (torch, 974911 bytes, 8 tensors)

weight f4 [256, 784]
-0.017657213 0.030131105 0.0014424585 -0.0009537712 0.02304845 -0.031311173 0.0072233304 0.0041654743
-0.00022086874 -0.015035344 0.0013391636 -0.014233308 0.0154448 -0.016288852 0.035054717 0.022943866
-0.035618484 -0.0071798526 -0.009547656 -0.026183218 -0.03161879 0.02786244 0.03534208 -0.025668776
0.021183547 -0.017262286 0.0001491271 0.010538444 0.020424265 0.0027839765 0.022939932 -0.03465999
0.028752979 0.015258312 -0.0011789687 0.014980543 -0.031758066 0.0053699575 -0.031819433 0.0334942
0.023597319 -0.026322275 0.009816125 0.00064983964 0.015181329 -0.013912475 0.0028205924 0.033997726
0.032149892 -0.0030720904 0.025461692 0.025481485 -0.016360186 -0.015666574 -0.010031739 -0.0063975845
0.012708776 0.02114629 -0.0063715447 0.026419133 0.010919787 -0.013735389 0.0042831376 0.02040257
0.02819844 0.016803198 0.034290902 -0.0026009688 -0.022354566 0.018993175 -0.0061986316 0.020579219
0.0039303545 0.014760995 0.005097822 0.13622312 -0.0068732146 0.028272247 0.0015482621 0.018509123
0.0031887777 -0.0031078234 0.033979442 -0.006885307 -0.0060732495 -0.018976144 0.034425575 0.02610245
0.011077069 -0.016238695 0.0061165877 0.026748646 0.020543832 0.0009879342 0.009221597 -0.027319457
0.017814618 -0.009975817 -0.069923826 -0.07053794 -0.05048785 -0.06539204 -0.11008193 0.067438476
0.051578786 0.054371 0.046202227 -0.0035053305 0.02895305 -0.026618937 0.0077328607 -0.019738955
-0.008436451 0.013669871 -0.022800962 -0.002057381 -0.09791003 -0.08395391 -0.058930255 -0.07274743
-0.1616645 -0.1780502 -0.25909013 -0.08662699 -0.038282454 -0.048873197 -0.07304743 -0.13092837
-0.13069458 -0.09190513 -0.23577318 -0.24505839 -0.27694952 -0.21679568 -0.22770694 0.012198798
0.029009864 0.018786667 0.005229749 0.021213245 -0.011133343 -0.029599885 0.006248761 -0.020765273
0.030689131 0.09363952 0.3104981 0.09753087 0.026231596 0.14275344 0.14782351 0.003673673
0.024229733 -0.00032005503 -0.02655473 -0.124445185 -0.12144971 -0.10903523 -0.07996717 -0.12322769
-0.34324992 -0.2860726 -0.29693565 -0.26784497 -0.1912995 -0.18417475 0.05554424 0.031116817
0.0038842484 0.029860977 0.02552588 0.021843044 0.066424415 0.22972058 0.128679 -0.024748193
-0.03903846 0.015881442 0.03494426 0.022555158 -0.038063124 -0.05135623 -0.018913638 0.08899947
0.029790144 -0.118635274 -0.03578638 0.009689256 -0.10956861 -0.16850221 -0.20669563 -0.20864701
-0.3259115 -0.13662536 -0.1700463 0.005631469 0.0017963275 0.03378981 -0.0030161997 -0.0091523435
-0.02656382 -0.032560296 0.012756565 -0.012959815 0.037578635 -0.075966835 -0.027334632 -0.0665583
-0.15815625 -0.2102362 -0.13451317 -0.12942058 -0.091679625 -0.16059043 -0.09600047 0.010177428
-0.16683991 -0.033228945 -0.2201383 -0.26299128 -0.046836518 0.1279932 0.13788107 0.014581684
-0.08773972 -0.028476082 -0.112821266 -0.03432235 0.19925803 -0.035036266 -0.082706854 -0.12126392
-0.033148635 -0.14949463 -0.10670951 -0.07955533 -0.17675968 -0.17730334 -0.05561014 -0.038290974
-0.12910254 -0.17396519 -0.16344048 -0.1704496 -0.07622383 -0.039825305 0.034440055 -0.06697458
0.13090149 0.08806906 0.11768046 0.028125565 0.018478721 0.003758721 -0.10295992 0.103456736
00000000: dca5 90bc 82d5 f63c e010 bd3a 8006 7aba
00000010: 1ad0 bc3c 2540 00bd b0b1 ec3b 887e 883b
00000020: 0099 67b9 ce56 76bc e086 af3a d232 69bc
00000030: 300c 7d3c 3370 85bc 8995 0f3d c6f4 bb3c
00000040: b0e4 11bd f844 ebbb c66d 1cbc 307e d6bc
00000050: b482 01bd c63f e43c dbc2 103d 5347 d2bc
00000060: 1e89 ad3c a369 8dbc 005f 1c39 70a9 2c3c
00000070: ca50 a73c 6073 363b 86ec bb3c a2f7 0dbd
00000080: 5e8b eb3c 00fe 793c a087 9aba f470 753c
00000090: bf14 02bd 78f6 af3b 1855 02bd 3731 093d
000000a0: 2a4f c13c d0a1 d7bc d0d3 203c 005a 2a3a
000000b0: 1cbb 783c 26f1 63bc b0d9 383b 3341 0b3d
000000c0: 9baf 033d 2055 49bb 0a95 d03c 8cbe d03c
000000d0: cc05 86bc 3057 80bc 2a5c 24bc d4a2 d1bb
000000e0: 7838 503c fc3a ad3c 64c8 d0bb f06c d83c
000000f0: e8e8 323c 660a 61bc 9059 8c3b 4a23 a73c
00000100: 6a00 e73c dca6 893c 9e74 0c3d 0475 2abb
00000110: ec20 b7bc 9397 9b3c e41d cbbb c095 a83c
00000120: 34ca 803b 1ad8 713c a10b a73b 137e 0b3e
00000130: b438 e1bb 339b e73c 0eef ca3a 72a0 973c
00000140: d0fa 503b a0ac 4bbb 072e 0b3d 249e e1bb
00000150: 1c02 c7bb dc73 9bbc d501 0d3d ced4 d53c
00000160: 987c 353c 0307 85bc a86d c83b fa1f db3c
00000170: 8a4b a83c 927d 813a 2e16 173c 0ecd dfbc
00000180: f6ef 913c 9c71 23bc 3934 8fbd 3276 90bd
00000190: 59cc 4ebd 43ec 85bd a372 e1bd 2f1d 8a3d
000001a0: 4744 533d 20b4 5e3d 8c3e 3d3d b0b9 65bb
000001b0: f22e ed3c f50f dabc f063 fd3b 97b3 a1bc
000001c0: 0a39 0abc 98f7 5f3c 15c9 babc 20d5 06bb
000001d0: 0e85 c8bd 07f0 abbd da60 71bd 9bfc 94bd
000001e0: 618b 25be cb52 36be 76a7 84be 7e69 b1bd
000001f0: 10ce 1cbd 432f 48bd e499 95bd 1612 06be
00000200: cdd4 05be c238 bcbd 866e 71be 96f0 7abe
00000210: 54cc 8dbe b0ff 5dbe 022c 69be 78dd 473c
00000220: 18a6 ed3c 7fe6 993c 505e ab3b 66c7 ad3c
00000230: a068 36bc 757b f2bc 68c2 cc3b ef1b aabc
00000240: c667 fb3c 14c6 bf3d 9bf9 9e3e 44be c73d
00000250: a5e3 d63c f52d 123e 0c5f 173e 01c2 703b
00000260: 6f7d c63c 0fcd a7b9 4e89 d9bc 1edd febd
00000270: a0ba f8bd dd4d dfbd d4c5 a3bd cd5e fcbd
00000280: 74be afbe 1c78 92be f307 98be fa22 89be
00000290: 04e4 43be 4e98 3cbe 5b82 633d b2e8 fe3c
000002a0: e08e 7e3b 029f f43c a61b d13c 2ff0 b23c
000002b0: 8609 883d df3b 6b3e 6ec4 033e b9bc cabc
000002c0: cbe6 1fbd cc19 823c b621 0f3d 98c5 b83c
000002d0: 14e8 1bbd e95a 52bd c6f0 9abc 5b45 b63d
000002e0: 760a f43c 0df7 f2bd bd94 12bd afbf 1e3c
000002f0: 8265 e0bd d88b 2cbe 05a8 53be 90a7 55be
00000300: dfdd a6be 85e7 0bbe 9e20 2ebe 3088 b83b
00000310: c072 eb3a 2f67 0a3d 6fab 45bb b6f3 15bc
00000320: 5e9c d9bc f25d 05bd e900 513c 6755 54bc
00000330: 0eec 193d 8094 9bbd e1ec dfbc b84f 88bd
00000340: b6f3 21be 2948 57be d2bd 09be d486 04be
00000350: 87c2 bbbd d171 24be e59b c4bd 3abf 263c
00000360: 15d8 2abe 131b 08bd ef6b 61be cba6 86be
00000370: a6d7 3fbd a610 033e b230 0d3e 04e8 6e3c
00000380: e2b0 b3bd ac46 e9bc d60e e7bd 9895 0cbd
00000390: 4c0a 4c3e 3082 0fbd 3662 a9bd 3859 f8bd
000003a0: ddc6 07bd 1f15 19be 848a dabd e8ed a2bd
000003b0: 7d00 35be 028f 35be 75c7 63bd ffd6 1cbd
000003c0: 7533 04be ee23 32be f15c 27be 578a 2ebe
000003d0: 3d1b 9cbd dc1f 23bd 0411 0d3d f829 89bd
000003e0: 0a0b 063e 8d5d b43d 7402 f13d 9667 e63c
000003f0: b060 973c e054 763b a7dc d2bd 20e1 d33d

bias f4 [256]
0.06916303 -0.00079110556 0.013994397 -0.020237852 -0.0071468 -0.049330916 0.021243494 -0.010720529
0.044687115 -0.18212847 -0.026277192 -0.033030234 -0.03735139 0.003295844 -0.010347463 0.07299798
-0.1379984 -0.04112345 -0.18970038 -0.014480721 -0.08274405 0.014443069 -0.071243025 -0.014329149
-0.18762408 -0.054587167 0.0028122666 0.008515276 0.02892368 0.012733472 -0.033061862 -0.013747681
0.14386356 0.008847901 0.0016573378 -0.09885298 -0.008587017 -0.03950557 -0.018605798 -0.043470584
-0.17308545 0.005467052 -0.0023809082 -0.028091181 0.00024101345 -0.00887503 -0.0685479 0.011370739
-0.037205294 -0.25344718 -0.02323691 -0.0714684 0.008285344 0.0053193416 -0.038975332 -0.015541697
0.00875187 -0.03975277 0.033268537 0.15240867 -0.007175039 -0.0076534213 0.03188027 -0.114333116
-0.032112386 -0.25648847 0.1426328 -0.083242744 -0.102191634 -0.09881076 -0.046345778 -0.002933176
0.0023956853 0.078844026 -0.054049447 -0.21575116 -0.10006645 0.0011956203 -0.079281785 0.10543525
-0.027125716 -0.013666128 -0.056694835 0.009216361 -0.00810239 -0.00040250106 -0.044217512 -0.040615983
-0.07135865 0.015019891 -0.084422044 -0.021529466 -0.010258314 0.056901753 -0.11490319 -0.05664975
0.031698313 -0.25615376 -0.03267135 -0.057387263 -0.039342687 -0.033271663 -0.076118566 -0.028581018
0.004576406 -0.12094511 -0.036842432 -0.041958705 -0.02021107 -0.24965739 -0.011059014 -0.0010404442
-0.015907058 -0.029652072 0.014408022 -0.028721426 -0.043499116 0.0005836216 -0.15206958 -0.031494834
0.08864342 -0.0025785973 0.00551409 0.00027279163 -0.019381026 -0.040457826 0.00416795 -0.013464203
-0.02929618 -0.016683355 -0.0055115814 -0.08187584 -0.00872106 -0.03050556 0.011924088 0.004086933
0.028194241 -0.16280894 -0.02885327 -0.10449775 0.0126031125 0.009341785 -0.15145159 -0.12036334
-0.121476516 -0.0044989646 0.014181827 0.039788093 -0.1574809 0.052836634 -0.036520224 -0.25655082
-0.032968014 -0.04410929 0.22441338 0.005017231 -0.10351359 -0.11575628 -0.007193535 -0.06454197
0.027808612 -0.057515416 -0.015124236 -0.05619689 -0.14317423 0.012352933 -0.0026616112 -0.10525081
-0.038634222 -0.0035729029 -0.051496375 -0.19073 0.005605583 -0.023541804 -0.026543807 0.008651296
-0.047041304 -0.052927647 -0.01145082 0.014172713 0.06785834 -0.03753343 0.119353674 -0.044215582
0.0036440333 -0.03539817 -0.00857335 -0.040969998 -0.18696241 0.06964194 0.023313839 0.024474965
-0.023933165 -0.027077427 -0.008515011 -0.031631794 -0.011611731 -0.19977288 0.0023786775 -0.19128872
-0.032000173 0.005933221 -0.020241302 0.002613274 -0.002419606 -0.044682328 -0.010142839 -0.035251953
-0.04306248 -0.037299775 -0.13311358 -0.05845487 -0.0021881356 -0.045417376 -0.049257547 -0.048143774
-0.037992455 -0.19866472 0.006940193 -0.048477244 -0.015199794 0.013163019 -0.123593666 0.009396035
-0.05745143 0.007238055 0.012723305 -0.057124723 6.96323e-05 -0.13121654 -0.05868914 -0.045836613
-0.09614478 0.011556215 -0.039140586 0.01437708 -0.026115453 -0.040434998 -0.20021512 -0.15981561
-0.027958613 -0.013189737 -0.044460826 -0.03303193 -0.118871674 -0.03664285 -0.04144364 -0.019724017
0.01922432 -0.12355976 -0.14488699 -0.098441154 -0.17887472 0.0030908517 0.020384844 0.0012841563
00000000: 59a5 8d3d 3262 4fba c148 653c dac9 a5bc
00000010: b42f eabb 370f 4abd d606 ae3c 28a5 2fbc
00000020: d609 373d e37f 3abe 4443 d7bc b64a 07bd
00000030: c5fd 18bd 16ff 573b 6888 29bc f77f 953d
00000040: 744f 0dbe 1071 28bd d140 42be 8c40 6dbc
00000050: b675 a9bd 9fa2 6c3c dde7 91bd cfc4 6abc
00000060: 8720 40be cb96 5fbd 014e 383b a883 0b3c
00000070: 5af1 ec3c 0da0 503c e06b 07bd f43d 61bc
00000080: f850 133e c9f6 103c 073b d93a 6e73 cabd
00000090: 8fb0 0cbc 98d0 21bd 306b 98bc 360e 32bd
000000a0: 503d 31be f524 b33b 0309 1cbb 7a1f e6bc
000000b0: 8eb8 7c39 9368 11bc d762 8cbd 564c 3a3c
000000c0: 9464 18bd d4c3 81be 555b bebc 065e 92bd
000000d0: 40bf 073c df4d ae3b 99a4 1fbd 9aa2 7ebc
000000e0: 0164 0f3c cdd3 22bd 9744 083d 0511 1c3e
000000f0: 971c ebbb 8dc9 fabb e394 023d 7b27 eabd
00000100: 4788 03bd 7552 83be 550e 123e 2c7b aabd
00000110: d949 d1bd 4c5d cabd 12d5 3dbd 873a 40bb
00000120: ee00 1d3b fa78 a13d f462 5dbd dfed 5cbe
00000130: a4ef ccbd 5cb6 9c3a 7d5e a2bd 70ee d73d
00000140: c036 debc e5e7 5fbc d838 68bd 3800 173c
00000150: e3bf 04bc c706 d3b9 6c1d 35bd f25c 26bd
00000160: 7c24 92bd fd15 763c 77e5 acbd 905e b0bc
00000170: 7d12 28bc d011 693d 5d52 ebbd 9109 68bd
00000180: 17d6 013d 9626 83be 65d2 05bd e80e 6bbd
00000190: cc25 21bd de47 08bd 0de4 9bbd bd22 eabc
000001a0: adf5 953b 12b2 f7bd 17e8 16bd e4dc 2bbd
000001b0: b091 a5bc 30a6 7fbe de30 35bc 845f 88ba
000001c0: 854f 82bc e7e8 f2bc a00f 6c3c 3249 ebbc
000001d0: 212c 32bd 2ffe 183a 21b8 1bbe ba00 01bd
000001e0: ae8a b53d affd 28bb 8aaf b43b 7905 8f39
000001f0: f5c4 9ebc 1bb7 25bd 4c93 883b f698 5cbc
00000200: 8bfe efbc 88ab 88bc 7f9a b4bb 85ae a7bd
00000210: c7e2 0ebc cce6 f9bc 405d 433c aeeb 853b
00000220: 9cf7 e63c 63b7 26be b15d ecbc eb02 d6bd
00000230: 497d 4e3c 490e 193c 2016 1bbe 0e81 f6bd
00000240: aec8 f8bd 0d6c 93bb e55a 683c d7f8 223d
00000250: ac42 21be 3a6b 583d 3b96 15bd a15a 83be
00000260: 7809 07bd f1ab 34bd 9fcc 653e 9667 a43b
00000270: effe d3bd a111 edbd bfb7 ebbb 952e 84bd
00000280: e3ce e33c 4995 6bbd a5cb 77bc b62e 66bd
00000290: 449c 12be f563 4a3c 6d6e 2ebb bd8d d7bd
000002a0: eb3e 1ebd 5d27 6abb dded 52bd ba4e 43be
000002b0: 0aaf b73b beda c0bc 6672 d9bc 2abe 0d3c
000002c0: 62ae 40bd a9ca 58bd 389c 3bbc ab34 683c
000002d0: 50f9 8a3d a7bc 19bd b36f f43d 661b 35bd
000002e0: bcd0 6e3b acfd 10bd 3c77 0cbc 28d0 27bd
000002f0: 1373 3fbe 6fa0 8e3d aafc be3c b97f c83c
00000300: 7c0f c4bc 7bd1 ddbc 8b82 0bbc 5790 01bd
00000310: 213f 3ebc 4391 4cbe 96e3 1b3b 31e1 43be
00000320: 9d12 03bd 776b c23b 16d1 a5bc 7643 2b3b
00000330: 4192 1ebb d104 37bd 262e 26bc 5a64 10bd
00000340: 4862 30bd a6c7 18bd ed4e 08be 606e 6fbd
00000350: d366 0fbb 9207 3abd 48c2 49bd 6832 45bd
00000360: fa9d 1bbd c46e 4bbe 8f6a e33b 1390 46bd
00000370: 8f08 79bc b4a9 573c ad1e fdbd d4f1 193c
00000380: 3152 6bbd 352d ed3b 6975 503c 9dfb 69bd
00000390: 8e07 9238 a15d 06be 0664 70bd 2cbf 3bbd
000003a0: 8ee7 c4bd 4756 3d3c e151 20bd d88d 6b3c
000003b0: 13f0 d5bc 2b9f 25bd 3105 4dbe b4a6 23be
000003c0: 7609 e5bc c419 58bc 8e1c 36bd 7d4c 07bd
000003d0: fe72 f3bd d016 16bd cec0 29bd 4394 a1bc
000003e0: 527c 9d3c e60c fdbd 415d 14be 849b c9bd
000003f0: ef2a 37be e38f 4a3b 1efe a63c 2351 a83a

weight f4 [128, 256]
-0.078665 -0.046631612 0.011794098 -0.10415632 -0.012750533 -0.020933859 -0.15416494 -0.042273216
-0.14809108 -0.07051814 -0.046310067 -0.013652668 -0.01857128 0.07976491 -0.05317668 -0.12854962
-0.08462865 0.042054337 0.076276585 -0.07734717 0.17416894 -0.0624875 -0.015331486 0.059430756
-0.152981 -0.076522134 -0.018090418 -0.022088971 -0.02228009 -0.05060455 -0.036654655 -0.0317868
0.08194112 -0.022498405 0.030197158 -0.029259346 0.011983169 0.037638653 -0.07774958 0.008400211
-0.03073469 -0.07555903 -0.07434401 0.04188958 -0.028946327 0.012707995 0.04186936 0.015526422
0.009411361 -0.074732564 -0.016362013 -0.109104365 -0.0050393613 0.031127723 0.015346764 -0.033946708
0.002807765 -0.01867911 0.029286515 -0.22664523 -0.0027195462 -0.012821179 -0.17007597 -0.17786142
0.031202946 -0.27653164 0.04265469 -0.046044987 -0.15066522 0.050481636 -0.04953433 -0.07098518
0.040589154 -0.0451194 0.010502212 -0.14777406 -0.16873802 -0.052514393 0.029802958 -0.16353373
-0.14155373 -0.024901811 0.060084745 -0.05527322 0.067410074 0.0059266463 0.035383992 -0.057562504
-0.11214183 -0.22237417 0.06936509 -0.024721038 -0.07894047 -0.15824775 -0.115868784 0.0056310003
-0.116917215 -0.16279535 0.031208873 -0.02766489 0.012362039 0.032641392 0.025306452 -0.013829749
0.007765961 -0.07421645 -0.033756185 -0.009068763 0.01882927 -0.17109329 -0.15079954 -0.009736963
0.02980584 -0.05728896 -0.028125536 -0.078992635 -0.0634299 0.03302665 -0.06714921 -0.044625495
-0.076025896 -0.006608446 -0.007568081 0.024367327 0.021302564 -0.13344002 -0.024514424 -0.020498428
-0.0657749 -0.07170162 0.032266848 0.014514079 0.037437044 -0.070584014 0.021001492 0.026115293
0.027956735 -0.23909755 -0.03161177 -0.06259619 0.033611916 -0.06243 -0.15990639 -0.0040811673
-0.0640603 -0.04201033 0.025308134 -0.10068075 0.018990982 -0.10588983 -0.0032270104 -0.1368115
0.03227974 0.030586177 -0.08897802 -0.0072027817 0.09332828 -0.27305466 -0.06811193 -0.051093683
-0.07420032 -0.059471168 -0.033485044 -0.11127612 -0.016552465 -0.04389625 0.004455365 -0.025963567
0.0155001795 -0.009817208 -0.027513599 0.07140771 -0.056056894 0.2654093 -0.061219655 -0.041371964
0.012976507 -0.035099734 -0.059417754 0.032496557 -0.0731162 -0.035190064 -0.13666165 -0.036459845
-0.043995798 -0.07668608 -0.020202281 -0.15780477 0.12345653 0.18235546 -0.16386598 -0.11781001
-0.05079937 0.029243927 0.0048915274 -0.22342984 -0.022215582 -0.033638433 0.036780007 0.107009545
7.326202e-05 -0.068994686 -0.053111106 0.00957804 0.00515914 0.01782351 0.049657274 -0.073399305
0.05963857 -0.10300303 -0.02003074 -0.08838835 -0.04318175 0.023470303 -0.0061063943 -0.06921937
0.11523384 0.09157439 -0.053455804 -0.03968096 0.026916806 -0.056109685 -0.08488069 -0.008394428
0.037390072 -0.0030923306 -0.036351275 0.02369644 -0.029236391 -0.046296738 -0.025442952 -0.097855315
0.013228253 -0.027234638 -0.03328331 -0.055363625 -0.059379153 -0.04194827 -0.15740137 -0.34384674
-0.05409963 0.03548508 -0.04367324 -0.08046708 -0.13382842 -0.028873367 0.016176729 -0.016880838
0.17321429 0.03042164 0.15052354 -0.10054883 -0.17889147 -0.037488665 0.090034425 -0.06380952
00000000: 1e1b a1bd ca00 3fbd 083c 413c e94f d5bd
00000010: 9de7 50bc 7c7d abbc 6add 1dbe ae26 2dbd
00000020: 30a5 17be d16b 90bd a0af 3dbd 71af 5fbc
00000030: cc22 98bc c95b a33d cacf 59bd 83a2 03be
00000040: c951 adbd 2b41 2c3d e636 9c3d 3168 9ebd
00000050: 5859 323e e5f2 7fbd ea30 7bbc aa6d 733d
00000060: 0da7 1cbe a3b7 9cbd 5b32 94bc eef3 b4bc
00000070: bc84 b6bc b746 4fbd 3123 16bd e032 02bd
00000080: bfd0 a73d 934e b8bc 0860 f73c 4cb1 efbc
00000090: 0e55 443c fd2a 1a3d 2c3b 9fbd 0aa1 093c
000000a0: 51c7 fbbc b1be 9abd ac41 98bd 6994 2b3d
000000b0: d920 edbc 3235 503c 357f 2b3d 8962 7e3c
000000c0: 1c32 1a3c 630d 99bd a109 86bc 1c72 dfbd
000000d0: 3a21 a5bb 91ff fe3c fe70 7b3c b40b 0bbd
000000e0: 7b02 383b ef04 99bc 46ea ef3c b015 68be
000000f0: 6a3a 32bb ec0f 52bc 6528 2ebe 4e21 36be
00000100: 529d ff3c 8e95 8dbe afb6 2e3d ab99 3cbd
00000110: fc47 1abe d5c5 4e3d 82e4 4abd ae60 91bd
00000120: d040 263d 1fcf 38bd 7811 2c3c 1552 17be
00000130: a9c9 2cbe 5519 57bd 5525 f43c 6375 27be
00000140: 76f3 10be e2fe cbbc 6c1b 763d 2c66 62bd
00000150: 4b0e 8a3d 5034 c23b ceee 103d a9c6 6bbd
00000160: 9eaa e5bd 0eb6 63be 490f 8e3d c683 cabc
00000170: 8bab a1bd b30b 22be 9d4c edbd 4184 b83b
00000180: 4b72 efbd d3b3 26be c0a9 ff3c 7ba1 e2bc
00000190: 268a 4a3c fbb2 053d 7a4f cf3c 2c96 62bc
000001a0: 9a79 fe3b cbfe 97bd ed43 0abd 2695 14bc
000001b0: d73f 9a3c 1433 2fbe 326b 1abe c887 1fbc
000001c0: 612b f43c d4a7 6abd 8667 e6bc e4c6 a1bd
000001d0: 89e7 81bd f446 073d 8685 89bd 39c9 36bd
000001e0: 77b3 9bbd aa8b d8bb aafd f7bb fd9d c73c
000001f0: b782 ae3c 80a4 08be 79d2 c8bc 52ec a7bc
00000200: feb4 86bd 4dd8 92bd 3e2a 043d 76cc 6d3c
00000210: 9657 193d 5a8e 90bd 520b ac3c bdef d53c
00000220: 8605 e53c fdd5 74be 587b 01bd 6e32 80bd
00000230: a6ac 093d 9ab6 7fbd 80be 23be 50bb 85bb
00000240: 0c32 83bd 0613 2cbd 0153 cf3c b631 cebd
00000250: fa92 9b3c c4dc d8bd 407c 53bb 5018 0cbe
00000260: c337 043d dd8f fa3c 1c3a b6bd 5005 ecbb
00000270: e622 bf3d d2cd 8bbe 447e 8bbd 9c47 51bd
00000280: 56f6 97bd 0a98 73bd 9d27 09bd bce4 e3bd
00000290: 0999 87bc 8ecc 33bd 4ffe 913b 8cb1 d4bc
000002a0: 77f4 7d3c 5bd8 20bc 3364 e1bc 353e 923d
000002b0: ea9b 65bd bae3 873e 76c1 7abd a675 29bd
000002c0: 6a9b 543c bdc4 0fbd 0860 73bd 1c1b 053d
000002d0: f2bd 95bd 7523 10bd 08f1 0bbe eb56 15bd
000002e0: f034 34bd 970d 9dbd 417f a5bc 9397 21be
000002f0: c7d6 fc3d 64bb 3a3e 7ccc 27be 6046 f1bd
00000300: 0013 50bd f690 ef3c 1b49 a03b cbca 64be
00000310: 74fd b5bc 74c8 09bd a2a6 163d d227 db3d
00000320: 3fa4 9938 164d 8dbd 088b 59bd 36ed 1c3c
00000330: 010e a93b 9c02 923c 6d65 4b3d 6052 96bd
00000340: 9347 743d 41f3 d2bd 8217 a4bc f404 b5bd
00000350: 59df 30bd cb44 c03c 2618 c8bb e3c2 8dbd
00000360: b8ff eb3d 5b8b bb3d 79f4 5abd 8188 22bd
00000370: a280 dc3c 45d3 65bd edd5 adbd c888 09bc
00000380: 5526 193d b3a8 4abb 13e5 14bd 091f c23c
00000390: 2881 efbc a6a1 3dbd bd6d d0bc 5e68 c8bd
000003a0: 51bb 583c 2d1b dfbc 1454 08bd f8c4 62bd
000003b0: 8e37 73bd f3d1 2bbd d32d 21be ae0c b0be
000003c0: 9397 5dbd ce58 113d b6e2 32bd edcb a4bd
000003d0: 510a 09be d787 ecbc 0f85 843c af49 8abc
000003e0: 165f 313e ce36 f93c d822 1a3e 8cec cdbd
000003f0: 532f 37be b78d 19bd f863 b83d 91ae 82bd

bias f4 [128]
-0.14427449 -0.035863608 0.17045514 0.43800023 -0.21416107 -0.17083369 0.37876496 -0.13811472
-0.4233017 -0.16376084 -0.32709733 -0.36619198 -0.39809108 -0.09898355 -0.0673022 -0.21463828
-0.2649008 -0.44707716 -0.40789962 -0.15038238 -0.051748533 -0.40923116 -0.67449033 0.0005008293
-0.267172 -0.5259857 0.30553994 -0.14550942 -0.053205352 -0.40455303 -0.24924608 -0.22579531
-0.4018841 -0.18952498 -0.08137129 -0.20741443 -0.28747296 -0.11759576 -0.37118745 -0.2277353
-0.10218274 -0.48765394 -0.042389818 -0.37292102 -0.12831491 -0.16571435 -0.20183635 0.13894978
-0.08391015 -0.21385637 -0.27186528 -0.31192362 -0.3091097 -0.40057704 0.529423 -0.06042352
-0.42217717 0.3595902 -0.29685527 -0.23197813 -0.26703075 -0.34922495 0.64947164 -0.49208355
-0.42283654 -0.22806501 -0.17071861 -0.13050881 0.41301596 -0.19153516 -0.43794143 0.055195723
-0.13675304 -0.03673959 -0.5368375 -0.24175057 0.21971747 -0.23213667 0.026926717 -0.13699634
-0.2686017 -0.13543692 -0.15593415 -0.40196803 -0.335245 -0.3697089 -0.50917315 -0.20478423
-0.49267152 0.69873035 0.7783002 0.3653907 -0.18959239 -0.39168644 -0.03177447 -0.22042374
0.0030894517 -0.27559838 -0.06099397 -0.46632957 -0.07827045 -0.20190871 -0.08776518 -0.5312613
-0.19128951 0.041459844 -0.24756446 -0.27505302 -0.50392663 -0.24224189 -0.087563775 0.3031152
-0.2997119 0.34911737 -0.12772948 -0.54781663 0.6619462 -0.29435495 0.6345885 -0.34550563
-0.056644984 -0.23737156 -0.3309633 0.098257065 -0.0049037864 -0.33304358 0.14976385 -0.42187452
00000000: b1bc 13be b8e5 12bd cb8b 2e3e 9141 e03e
00000010: 0a4d 5bbe 07ef 2ebe 7bed c13e f26d 0dbe
00000020: 00bb d8be ecb0 27be 4d79 a7be 847d bbbe
00000030: 98d2 cbbe e3b7 cabd bcd5 89bd 23ca 5bbe
00000040: 14a1 87be 4ce7 e4be 38d8 d0be d7fd 19be
00000050: 45f6 53bd bf86 d1be 66ab 2cbf 164a 033a
00000060: c5ca 88be 00a7 06bf bb6f 9c3e 6c00 15be
00000070: dbed 59bd 9321 cfbe 5d3a 7fbe e336 67be
00000080: c1c3 cdbe d612 42be fea5 a6bd 7364 54be
00000090: a82f 93be 0cd6 f0bd 480c bebe 7133 69be
000000a0: 2f45 d1bd c7ad f9be f2a0 2dbd 81ef bebe
000000b0: fc64 03be 06b1 29be 30ae 4ebe da48 0e3e
000000c0: 16d9 abbd 2afd 5abe ed31 8bbe 74b4 9fbe
000000d0: a043 9ebe 6f18 cdbe 4488 073f a77e 77bd
000000e0: 9b27 d8be 351c b83e 6afd 97be ad8b 6dbe
000000f0: 41b8 88be 9dcd b2be c643 263f 60f2 fbbe
00000100: 087e d8be e089 69be dcd0 2ebe 1aa4 05be
00000110: d476 d33e cb21 44be dc39 e0be e914 623d
00000120: fd08 0cbe 417c 16bd 2f6e 09bf 768d 77be
00000130: 9efd 603e 3cb5 6dbe 6b95 dc3c c548 0cbe
00000140: 2986 89be faaf 0abe 34ad 1fbe c1ce cdbe
00000150: 3ca5 abbe 7c4a bdbe 2c59 02bf f5b2 51be
00000160: 713f fcbe fedf 323f af3e 473f 7d14 bb3e
00000170: 8224 42be 208b c8be f225 02bd c3b6 61be
00000180: 6678 4a3b 3b1b 8dbe d0d4 79bd c0c2 eebe
00000190: 424c a0bd 28c1 4ebe 3bbe b3bd be00 08bf
000001a0: 66e1 43be ccd1 293d 8a81 7dbe c0d3 8cbe
000001b0: 5601 01bf 420e 78be a354 b3bd ea31 9b3e
000001c0: d773 99be 83bf b23e 84cb 02be b63d 0cbf
000001d0: 4e75 293f b1b5 96be 6474 223f 1de6 b0be
000001e0: 9204 68bd 8811 73be 0674 a9be 003b c93d
000001f0: f1af a0bb b084 aabe b25b 193e f0ff d7be

weight f4 [64, 128]
-0.010850841 -0.10522202 -0.15035567 0.07033447 -0.13820326 -0.19541489 -0.23157904 -0.22803454
0.13492861 0.06742206 0.10647273 -0.034615982 0.037241146 0.06530543 -0.073139966 -0.104405425
0.093049414 -0.041611347 -0.21732697 0.036494117 -0.055696357 -0.058149137 -0.034046076 -0.076920226
-0.13002671 0.04153648 -0.3310095 -0.020507473 0.05589246 0.030874498 -0.08770523 -0.08488219
-0.01774214 -0.16993886 -0.1314743 -0.036937222 -0.08421564 0.0018566155 -0.25292525 0.11598601
-0.05846891 -0.0068038437 -0.083293036 -0.045656186 -0.091495425 -0.19821696 0.0426226 -0.038225677
0.09574284 -0.0053314334 -0.1250381 0.22252898 -0.02881903 0.09037211 -0.0523374 0.042317048
-0.016301144 -0.07849109 -0.19574061 -0.012926339 -0.049656164 -0.053049732 -0.07344402 -0.12080697
0.043989886 -0.16365728 -0.04052921 -0.008787115 -0.18925059 -0.08249855 -0.018972583 -0.08891509
0.004066087 0.015246573 -0.09319755 -0.12828068 -0.21797779 0.035212334 0.0023918557 -0.17470892
-0.04603522 -0.10762749 -0.03946917 -0.15594305 0.058373 -0.08543262 -0.18039903 0.031816695
0.045969203 -0.26525277 -0.008855162 -0.18459862 -0.05735245 0.047567666 -0.10446086 -0.048838787
-0.16933124 0.046586342 -0.24927746 -0.26003262 -0.09647184 -0.2479933 -0.09216402 -0.030548025
-0.12238226 0.08222118 0.015369666 -0.12215357 0.05652079 -0.05435546 -0.14850119 0.022337964
-0.07437878 -0.011345709 -0.07384049 0.055879164 -0.15803112 -0.06211038 0.039367747 0.062823154
-0.049616072 0.025728142 -0.0012011558 0.039002344 -0.1275578 -0.048410725 -0.2997219 -0.116817035
-0.16332752 -0.111180626 -0.082976624 -0.01639752 0.092073865 -0.12165885 -0.0010844616 0.02299633
0.05418914 -0.057211667 -0.13711408 0.07116018 -0.07561786 0.01155514 -0.1622122 0.039096635
0.0073341355 0.18890104 -0.021596536 -0.1590881 -0.25811583 0.063876696 -0.06418776 -0.13591026
-0.021896116 -0.07890829 -0.025138281 -0.08484891 -0.008204687 0.00797385 -0.044021893 0.031909578
-0.19482628 -0.15868662 -0.06741867 -0.14484921 -0.040177505 0.07827791 -0.16226356 -0.095153645
-0.18322118 -0.10229453 0.01864945 0.08830201 0.00025234776 -0.092607975 -0.035864703 0.12640181
-0.073169425 0.08420572 -0.015238744 -0.017986475 -0.060949005 0.04417078 -0.028190173 -0.0200124
-0.05752469 -0.12978959 0.0651967 0.07974329 0.0046915924 -0.1394957 -0.20795704 -0.093620226
-0.039095193 -0.16521256 -0.038482863 -0.18485574 0.011423 -0.03153146 0.15432769 -0.046707954
-0.13972399 0.12910552 -0.2860175 -0.05402936 -0.21203224 -0.07287315 -0.08476231 0.079159334
-0.0024277694 0.063291915 0.11297181 -0.044105142 -0.20701844 0.022550274 -0.032265652 -0.10509699
0.028816085 -0.031510606 -0.035206914 -0.14226982 -0.17409813 -0.11473612 0.0071310136 -0.0396356
-0.11339841 -0.08222728 -0.14410503 0.07205661 -0.03505812 -0.09338462 -0.011854783 -0.20534301
-0.111525066 0.017925307 -0.21436417 -0.21958353 -0.109072514 0.0126866875 0.033954296 -0.10877647
-0.23707438 0.03580089 0.024609767 -0.09931552 -0.032193337 -0.17368853 -0.12261878 -0.07224828
-0.2316984 0.026429709 -0.048437875 0.005292261 -0.04386517 -0.022761535 0.07700624 -0.18800248
00000000: bac7 31bc a47e d7bd d6f6 19be 850b 903d
00000010: 2885 0dbe d71a 48be 0e23 6dbe e381 69be
00000020: ba2a 0a3e 9414 8a3d 600e da3d 7dc9 0dbd
00000030: 2c8a 183d dabe 853d 68ca 95bd 83d2 d5bd
00000040: b190 be3d a970 2abd f68a 5ebe db7a 153d
00000050: dd21 64bd ca2d 6ebd e673 0bbd 5a88 9dbd
00000060: b925 05be 2822 2a3d 147a a9be 4aff a7bc
00000070: 7eef 643d 84ec fc3c cd9e b3bd b7d6 adbd
00000080: f757 91bc 7404 2ebe 33a1 06be 7c4b 17bd
00000090: 4079 acbd ae59 f33a 6b7f 81be 138a ed3d
000000a0: 197d 6fbd c7f2 debb 8a95 aabd fb01 3bbd
000000b0: f461 bbbd 63f9 4abe 0995 2e3d 8792 1cbd
000000c0: d214 c43d 4eb3 aebb fd09 00be a3de 633e
000000d0: e315 ecbc 0315 b93d be5f 56bd a454 2d3d
000000e0: fa89 85bc f0bf a0bd 3a70 48be ffc8 53bc
000000f0: 4364 4bbd ad4a 59bd d169 96bd a569 f7bd
00000100: bd2e 343d c695 27be f501 26bd d5f7 0fbc
00000110: e8ca 41be 00f5 a8bd 646c 9bbc 1d19 b6bd
00000120: cf3c 853b c3cc 793c 5bde bebd 035c 03be
00000130: 9235 5fbe cf3a 103d aec0 1c3b e5e6 32be
00000140: 6d8f 3cbd cd6b dcbd 6daa 21bd 89af 1fbe
00000150: 8718 6f3d 4cf7 aebd 86ba 38be 3952 023d
00000160: 344a 3c3d 36cf 87be 3e15 11bc 6c07 3dbe
00000170: 67ea 6abd 50d6 423d 93ef d5bd 2e0b 48bd
00000180: 2b65 2dbe 52d1 3e3d 9742 7fbe ff22 85be
00000190: 0793 c5bd f5f1 7dbe 7dc0 bcbd da3f fabc
000001a0: 8da3 fabd 9463 a83d 0dd1 7b3c a72b fabd
000001b0: 5882 673d d5a3 5ebd b210 18be 1bfe b63c
000001c0: e753 98bd 5ae3 39bc af39 97bd 8de1 643d
000001d0: e9d2 21be 7467 7ebd 1340 213d 6da9 803d
000001e0: 393a 4bbd d3c3 d23c 1a70 9dba ecc0 1f3d
000001f0: 839e 02be 534a 46bd 2675 99be c53d efbd
00000200: 543f 27be abb2 e3bd a6ef a9bd 1854 86bc
00000210: 3991 bc3d 4628 f9bd 7e24 8eba cd62 bc3c
00000220: 6ff5 5d3d c856 6abd a267 0cbe 6ebc 913d
00000230: 89dd 9abd c551 3d3c f41a 26be cb23 203d
00000240: 3053 f03b 466f 413e 38eb b0bc fee7 22be
00000250: c227 84be c9d1 823d df74 83bd 0f2c 0bbe
00000260: 7c5f b3bc ab9a a1bd ccee cdbc 44c5 adbd
00000270: f46c 06bc c0a4 023c 4d50 34bd 9eb3 023d
00000280: 8a80 47be bf7e 22be cd12 8abd 5a53 14be
00000290: 2b91 24bd 2b50 a03d 6b28 26be eadf c2bd
000002a0: 559e 3bbe cb7f d1bd bbc6 983c afd7 b43d
000002b0: 8b4d 8439 40a9 bdbd dee6 12bd 7a6f 013e
000002c0: dad9 95bd 0c74 ac3d edab 79bc 5f58 93bc
000002d0: aaa5 79bd 6bec 343d 14ef e6bc 0bf1 a3bc
000002e0: 029f 6bbd 90e7 04be d985 853d 7350 a33d
000002f0: eebb 993b f6d7 0ebe b1f2 54be f6bb bfbd
00000300: 4822 20bd 7b2d 29be 35a0 1dbd d34a 3dbe
00000310: 8927 3b3c 2227 01bd 1408 1e3e d750 3fbd
00000320: ce13 0fbe 3d34 043e e370 92be e44d 5dbd
00000330: fb1e 59be 853e 95bd dd97 adbd 4a1e a23d
00000340: 361b 1fbb 319f 813d c45d e73d 98a7 34bd
00000350: a4fc 53be 5abb b83c fd28 04bd 173d d7bd
00000360: b60f ec3c 4411 01bd 2035 10bd 2eaf 11be
00000370: c846 32be c5fa eabd 47ab e93b f058 22bd
00000380: 6d3d e8bd c766 a8bd 4590 13be 6a92 933d
00000390: 1a99 0fbd 7040 bfbd 903a 42bc 7045 52be
000003a0: 4167 e4bd 18d8 923c 4882 5bbe 81da 60be
000003b0: 6961 dfbd d3db 4f3c a913 0b3d 33c6 debd
000003c0: a0c3 72be f4a3 123d 6c9a c93c ef65 cbbd
000003d0: 29dd 03bd 68db 31be 8e1f fbbd e8f6 93bd
000003e0: 5842 6dbe 1e83 d83c cb66 46bd b46a ad3b
000003f0: f7ab 33bd 6676 babc 73b5 9d3d b983 40be

bias f4 [64]
0.3589671 0.06977431 -0.16811022 -0.1484535 0.2577506 0.3251357 -0.15717712 0.10259393
-0.22332136 -0.27220148 -0.104413815 -0.098600626 -0.07992181 0.1205802 0.2860812 -0.06507558
0.103948295 0.63849324 -0.10809142 0.3547029 -0.3185522 -0.21976028 0.21369362 0.74684006
0.43504065 -0.33629337 0.16091903 0.20969239 -0.18530408 0.13999815 -0.4844845 -0.22533238
0.23282713 -0.10754012 0.17508109 -0.24446505 -0.19887972 -0.26311752 -0.22129928 -0.13830289
0.23606668 0.28289264 0.35677788 0.7298621 0.4139166 0.022724777 0.11330026 -0.26146653
-0.32044 -0.23802173 0.27848506 -0.24292272 0.7647073 0.46627796 0.37927806 -0.19131123
0.047699686 0.6399675 -0.07073257 -0.24975623 0.507785 0.9911671 0.27250051 -0.08571205
00000000: 89ca b73e d5e5 8e3d 1625 2cbe 3204 18be
00000010: e3f7 833e 3078 a63e 0af3 20be c41c d23d
00000020: 5bae 64be fe5d 8bbe e9d6 d5bd 20ef c9bd
00000030: 0cae a3bd c0f2 f63d 3c79 923e 5846 85bd
00000040: d8e2 d43d 4b74 233f 095f ddbd 9e9b b53e
00000050: 4619 a3be d708 61be 80d2 5a3e e930 3f3f
00000060: a6bd de3e a52e acbe f5c7 243e 9ab9 563e
00000070: 5ac0 3dbe ad5b 0f3e 5a0e f8be 88bd 66be
00000080: 3c6a 6e3e ff3d dcbd 7548 333e 0c55 7abe
00000090: 20a7 4bbe 57b7 86be 479c 62be 469f 0dbe
000000a0: 77bb 713e 4ed7 903e 97ab b63e 3ed8 3a3f
000000b0: e0ec d33e 5029 ba3c f709 e83d f1de 85be
000000c0: b610 a4be f8bb 73be 9895 8e3e bcc0 78be
000000d0: dcc3 433f fcbb ee3e bc30 c23e 17e7 43be
000000e0: bf60 433d e9d4 233f 3ddc 90bd 19c0 7fbe
000000f0: 33fe 013f 21bd 7d3f 3085 8b3e cd89 afbd

weight f4 [10, 64]
-0.0076585696 -0.010622689 0.026519364 0.008664437 -0.04509711 -0.055421606 0.007537305 0.06155576
0.02844151 0.03956726 0.038061168 -0.06091355 -0.05641448 -0.041971516 0.03493429 0.006616072
-0.121435665 -0.031647198 0.08757972 0.0981186 0.01619586 0.00445822 -0.0074312845 -0.07147806
-0.06586297 0.0023499837 0.07555939 0.018198023 -0.029516134 -0.069581024 0.06297198 0.06272188
-0.039838016 -0.0024792596 -0.055707272 0.03257517 -0.080666274 -0.007873608 -0.02435179 0.04448811
0.007998313 -0.048053052 -0.06045946 -0.018361697 -0.12668556 -0.05842389 -0.006552305 0.012099461
0.0064765033 0.10511435 -0.035426762 0.05537268 -0.050834216 -0.08826572 -0.10097502 -0.023381459
0.031131724 0.030697236 -0.012566245 0.068348505 -0.0867587 -0.055070158 -0.044273876 -0.05160468
-0.004576335 0.06064187 0.06319362 -0.019778844 -0.015727766 0.02718692 -0.007523774 -0.06272008
0.01705028 -0.20251761 -0.02948055 -0.0077903783 0.087067544 0.027092768 -0.054613106 0.049195576
0.039579164 0.022666816 -0.13817818 -0.017322248 -0.12001094 -0.034514636 -0.034796543 -0.050404273
0.009711318 -0.067599155 0.0113817165 -0.027345838 0.048050907 -0.0717311 -0.041313108 -0.024516556
0.06760979 0.0022758106 0.06470257 0.10237016 -0.11478076 -0.050136 0.037678182 -0.042682964
0.020639129 0.06699023 0.06407696 -0.0016091536 -0.039758056 0.054026525 -0.049339212 -0.022749187
-0.02246789 -0.025267638 -0.013288555 0.052687094 -0.013720159 0.01613037 0.12627564 0.0025070868
0.029303938 0.058177818 0.0002050934 -0.07083152 -0.047640707 -0.0044692513 0.073960856 -0.10983374
0.072643876 -0.0020747543 0.00049889827 0.011474736 0.047312446 0.024779305 0.03176869 0.009606697
0.027472958 -0.008190588 0.014571269 0.005512417 0.0541881 0.036490448 0.0014994715 0.09310846
-0.024597071 -0.07083591 0.04466685 0.041395098 0.019042911 -0.10699086 -0.055108473 -0.00759252
0.004237215 -0.02818042 0.0069666025 0.03167325 0.05963093 -0.08923008 0.03234162 0.04022735
0.09601245 0.06651559 0.06935845 0.02518622 -0.015591425 -0.08234832 -0.012687862 -0.013134606
-0.07435791 0.02039089 0.06253173 0.029956415 -0.010560556 0.035591256 -0.017582437 0.08615963
0.05624407 -0.08090275 -0.026253926 0.10666473 0.028648626 0.0073613203 0.009616046 -0.011580127
0.078982785 0.041262925 -0.0038367906 0.06376572 0.02105162 -0.06031034 0.05559036 -0.023393767
0.0023732793 -0.012570384 0.040828258 -0.015745562 -0.016193928 0.086831346 0.1046855 -0.0012076297
0.040479433 0.05710701 -0.008957336 -0.016455133 -0.038103923 0.095201254 -0.0506951 0.09097486
-0.004322901 -0.006708379 0.033538494 0.007820159 -0.057931162 -0.03381425 0.044031132 -0.032087393
0.042904418 -0.009572576 0.0140918065 0.034117106 0.008848347 -0.0104761645 0.07827545 -0.039899006
0.06761941 0.010302107 -0.007301698 0.035456818 0.0223491 0.086026385 0.0072653173 0.006805737
0.029452931 -0.003747658 0.08647317 0.0907375 -0.04197551 -0.0031823928 -0.100714035 0.099415585
0.06939301 -0.05343971 0.024973063 0.01933753 -0.0014308628 0.07765164 0.12045725 0.027296461
0.044414245 -0.0032881564 0.043394353 -0.030236846 -0.025148774 0.009542527 0.016015612 -0.013456546
00000000: bdf4 fabb c90a 2ebc 233f d93c 48f5 0d3c
00000010: bfb7 38bd c401 63bd 7ffb f63b e521 7c3d
00000020: 2bfe e83c 4711 223d 07e6 1b3d 7d80 79bd
00000030: df12 67bd 53ea 2bbd 4217 0f3d a2cb d83b
00000040: 43b3 f8bd 7ea0 01bd ff5c b33d 68f2 c83d
00000050: 2ead 843c 4316 923b 2282 f3bb 1763 92bd
00000060: 2ae3 86bd 2f02 1a3b e2be 9a3d 0514 953c
00000070: d2cb f1bc 7f80 8ebd 74f7 803d 5474 803d
00000080: 302d 23bd 137b 22bb 4f2d 64bd 8b6d 053d
00000090: 5c34 a5bd 4e00 01bc 687d c7bc 2a39 363d
000000a0: 5b0b 033c 47d3 44bd 57a4 77bd 456b 96bc
000000b0: dcb9 01be e44d 6fbd b8b4 d6bb d13c 463c
000000c0: d938 d43b 3146 d73d a71b 11bd 77ce 623d
000000d0: 8a37 50bd a8c4 b4bd fecb cebd 798a bfbc
000000e0: f507 ff3c c578 fb3c a7e2 4dbc 4dfa 8b3d
000000f0: 8cae b1bd 3f91 61bd 8658 35bd 6e5f 53bd
00000100: 15f5 95bb 9c63 783d a86b 813d 3e07 a2bc
00000110: 84d7 80bc 1bb7 de3c fe89 f6bb 6373 80bd
00000120: 07ad 8b3c c760 4fbe 3281 f1bc 6e46 ffbb
00000130: 7850 b23d a7f1 dd3c feb1 5fbd 4d81 493d
00000140: c31d 223d c2af b93c 957e 0dbe 63e7 8dbc
00000150: 4cc8 f5bd 385f 0dbd d286 0ebd b674 4ebd
00000160: 381c 1f3c 6d71 8abd 617a 3a3c 6104 e0bc
00000170: 07d1 443d c1e7 92bd ef37 29bd f2d6 c8bc
00000180: 0077 8a3d c425 153b c882 843d 72a7 d13d
00000190: 2d12 ebbd 685b 4dbd 7054 1a3d 55d4 2ebd
000001a0: 6413 a93c 2c32 893d c83a 833d 3cea d2ba
000001b0: 58d9 22bd eb4a 5d3d ea17 4abd 815c babc
000001c0: 950e b8bc 14fe cebc 3db8 59bc 6cce 573d
000001d0: 85ca 60bc d623 843c 674e 013e f04d 243b
000001e0: d00e f03c dd4b 6e3d 570e 5739 1e10 91bd
000001f0: e722 43bd cc72 92bb ca78 973d 83f0 e0bd
00000200: 50c6 943d 9af8 07bb 7fc8 023a 8800 3c3c
00000210: b2ca 413d f8fd ca3c e31f 023d 6865 1d3c
00000220: f80e e13c d131 06bc 55bc 6e3c 81a1 b43b
00000230: 57f4 5d3d 0277 153d ea89 c43a a6af be3d
00000240: cc7f c9bc 6b12 91bd 96f4 363d e88d 293d
00000250: e1ff 9b3c 061e dbbd 6cb9 61bd adca f8bb
00000260: 56d8 8a3b a0da e6bc 1948 e43b cfbb 013d
00000270: 903f 743d 43be b6bd a678 043d 6fc5 243d
00000280: 2da2 c43d 5339 883d ce0b 8e3d 5553 ce3c
00000290: 2d73 7fbc 3ca6 a8bd c0e0 4fbc 8832 57bc
000002a0: f648 98bd cc0a a73c a310 803d 2867 f53c
000002b0: 2f06 2dbc 23c8 113d 0b09 90bc 7674 b03d
000002c0: 2f60 663d 57b0 a5bd 7912 d7bc 0a73 da3d
000002d0: 86b0 ea3c 3b37 f13b 9f8c 1d3c 93ba 3dbc
000002e0: bac1 a13d 5003 293d aa72 7bbb 9a97 823d
000002f0: 7274 ac3c fa07 77bd b8b2 633d 49a4 bfbc
00000300: 0589 1b3b 03f4 4dbc 883b 273d d6fc 80bc
00000310: 21a9 84bc a2d4 b13d 5a65 d63d 5449 9eba
00000320: c3cd 253d 0ae9 693d cac1 12bc eacc 86bc
00000330: dc12 1cbd e0f8 c23d aaa5 4fbd 0751 ba3d
00000340: 1fa7 8dbb f6d1 dbbb a95f 093d 2020 003c
00000350: 3a49 6dbd d080 0abd fd59 343d 126e 03bd
00000360: 8bbc 2f3d 4bd6 1cbc 52e1 663c 61be 0b3d
00000370: a8f8 103c 38a4 2bbc e14e a03d 246d 23bd
00000380: 0c7c 8a3d 2bca 283c 1543 efbb 2b3b 113d
00000390: 7615 b73c 9a2e b03d e611 ee3b a902 df3b
000003a0: 4647 f13c 459b 75bb d818 b13d 95d4 b93d
000003b0: 83ee 2bbd b18f 50bb 2943 cebd 669a cb3d
000003c0: ec1d 8e3d 99e3 5abd 4f94 cc3c bd69 9e3c
000003d0: ca8b bbba d307 9f3d 4ab2 f63d d49c df3c
000003e0: b6eb 353d 1c7e 57bb 47be 313d 43b3 f7bc
000003f0: cd04 cebc 4258 1c3c 2c33 833c d878 5cbc

bias f4 [10]
0.2312084 -0.67846674 -0.15421648 -0.22387215 0.047322765 -0.124843284 -0.06372971 -0.46595216
0.9805863 0.10155031
00000000: e5c1 6c3e ffaf 2dbf edea 1dbe be3e 65be
00000010: 84d5 413d d6ad ffbd b984 82bd 4891 eebe
00000020: b407 7b3f 9cf9 cf3d
