03_debuggin_and_visualization/checkpoint.pth (torch, 181139 bytes, 10 tensors)

conv1.weight f4 [6, 1, 5, 5]
0	0x3da7b363	0.08188512
1	0x3d3b8005	0.045776386
2	0x3dd01216	0.101596996
3	0x3cb866c6	0.022509944
4	0xbe27f69b	-0.16402666
5	0x3ca7447a	0.020418394
6	0x3d95c6fd	0.07313345
7	0xbd9e25bd	-0.07722042
8	0xbdee8f2e	-0.11648403
9	0xbe1adb9f	-0.15122841
10	0x3d331935	0.04372521
11	0xbdcabd6a	-0.09899409
12	0xbdb049d0	-0.086078286
13	0xbe269d95	-0.1627105
14	0xbbe252f4	-0.0069068614
15	0xbe170506	-0.1474801
16	0xbdac9504	-0.0842686
17	0xbe3892db	-0.18024771
18	0xbb8f042f	-0.0043645124
19	0xbd223148	-0.03959778
20	0xbe00615f	-0.12537144
21	0xbe203d7f	-0.15648459
22	0x3c89a733	0.01680336
23	0xbc869dda	-0.016432691
24	0x3db8443d	0.089973904
25	0x3e21faa4	0.15818268
26	0x3e68d532	0.22737578
27	0x3dbbd657	0.091717415
28	0x3e707e29	0.23485626
29	0x3e3a953f	0.18220995
30	0xbd187bc0	-0.037227392
31	0xbd87665c	-0.066113204
32	0xbcdac887	-0.026706947
33	0xbdd36f44	-0.103239566
34	0xbc35b0b2	-0.011089491
35	0xbebd6e7e	-0.3699836
36	0xbe6ae3a8	-0.22938406
37	0xbe2f49d9	-0.17118014
38	0xbe23923d	-0.15973754
39	0xbe2ed0e1	-0.17071868
40	0xbd84a503	-0.06476786
41	0xbe2736b9	-0.16329469
42	0xbe8f53aa	-0.27993518
43	0xbe6ec967	-0.23319016
44	0xbe8dea72	-0.2771793
45	0x3ddfe3ab	0.10932096
46	0x3ddcb218	0.10776156
47	0x3d71e126	0.05905261
48	0x3df87439	0.12131543
49	0x3b2552fa	0.002522646
50	0x3d838743	0.064222835
51	0xbc7392e5	-0.014866565
52	0xbe91d40d	-0.28482094
53	0xbd1e5b06	-0.038661025
54	0xbd00c9ee	-0.031442575
55	0xbd2abed0	-0.04168588
56	0x3e489e81	0.19591714
57	0xbea070b5	-0.3133599
58	0xbeae6040	-0.34057808
59	0xbe2585fc	-0.16164392
60	0xbc846637	-0.016162021
61	0x3efefcf9	0.49802378
62	0x3ee6aa20	0.4505167
63	0xbdd4e26a	-0.103947476
64	0x3c9c219d	0.019058997
65	0xbe7539be	-0.23947808
66	0xbcb8095c	-0.0224654
67	0x3ee5d91c	0.44892204
68	0x3ebe1d0d	0.3713154
69	0xbdd65d6d	-0.10467038
70	0xbd4d76bf	-0.050162073
71	0xbd4f00cd	-0.050537873
72	0xbe5d2aae	-0.21598312
73	0x3dd807cd	0.10548363
74	0x3dda9a39	0.10673947
75	0x3e5e1afe	0.21689984
76	0x3dccfa1b	0.10008641
77	0x3ca2e93d	0.019886607
78	0x3d343025	0.043991227
79	0xbd986262	-0.0744064
80	0x3db4fa0b	0.088367544
81	0x3e683080	0.22674751
82	0xbdf74460	-0.12073588
83	0xbdff4452	-0.12464203
84	0x3d5e4ef3	0.05427451
85	0x3e8da2e7	0.27663347
86	0x3db97c9d	0.09056971
87	0xbda1d2d6	-0.07901542
88	0xbe0393b7	-0.12849317
89	0x3d39f175	0.045396287
90	0x3e71f9e3	0.2363048
91	0x3cf91713	0.03040651
92	0xbdac2d6e	-0.084071025
93	0x3c3ff16f	0.011715277
94	0xbcb20ea5	-0.021735499
95	0x3e17c326	0.14820537
96	0x3e04ad82	0.12956813
97	0x3c2119d2	0.009832816
98	0xbdd3309d	-0.103120066
99	0xbd2214e7	-0.039570715
100	0x3e6b42f2	0.22974756
101	0x3ca00e28	0.019538
102	0x3e167d08	0.14696133
103	0x3e46f495	0.19429238
104	0x3d321722	0.043479092
105	0x3e2beaa6	0.1678873
106	0x3e16c661	0.14724113
107	0x3e0c5827	0.13705502
108	0x3e8cbdf9	0.27488688
109	0x3e907bbf	0.2821941
110	0xbd1bacc8	-0.038006574
111	0xbdb2046b	-0.08692249
112	0xbde97c1f	-0.11400627
113	0xbe138587	-0.14406405
114	0xbd9c40c8	-0.076295435
115	0xbdf44f8f	-0.11929237
116	0xbd8997b6	-0.0671839
117	0xbe907919	-0.2821739
118	0xbe80ea5f	-0.2517881
119	0x3cca1e92	0.02467278
120	0xbda6b629	-0.08140213
121	0xbda6467d	-0.08118913
122	0x3c93d831	0.018047424
123	0x3de72f54	0.11288324
124	0xbd8ee042	-0.069763675
125	0x3de1f047	0.110321574
126	0xbd93dcca	-0.072198465
127	0x3d6f2bbc	0.058391318
128	0x3d42608e	0.047455363
129	0xbcf56c84	-0.02995897
130	0x3e5541a2	0.20825818
131	0x3c96f730	0.018428415
132	0x3c029223	0.007969412
133	0xbd9e4876	-0.077286646
134	0xbe38efc4	-0.18060213
135	0x3db6ffc5	0.08935503
136	0xbe0f9054	-0.140199
137	0xbeb67c7f	-0.35641858
138	0xbe8478b9	-0.25873354
139	0x3e06273c	0.13100904
140	0xbe03173b	-0.1280183
141	0xbe61e54e	-0.22060129
142	0xbe8f53fd	-0.27993765
143	0x3ee73a89	0.45161846
144	0x3ede350b	0.43399844
145	0x3e06da8c	0.13169307
146	0x3ea16cc8	0.31528306
147	0x3ed959fd	0.42451468
148	0x3df27c38	0.11840099
149	0xbec451a6	-0.38343543

conv1.bias f4 [6]
0	0xbf470555	-0.7774251
1	0xbf6292ca	-0.8850523
2	0xbf049fde	-0.5180644
3	0xbe852c61	-0.2601042
4	0xbefcc803	-0.49371347
5	0xbec71ff9	-0.3889158

conv2.weight f4 [16, 6, 5, 5]
0	0xbd463d2f	-0.048398193
1	0x3da1c8c0	0.07899618
2	0xbdd1b293	-0.102391385
3	0xbd5d68e5	-0.054055113
4	0x3cacd02f	0.021095363
5	0x3d0f635e	0.035006873
6	0xbe08e4ed	-0.13368578
7	0xbea347ba	-0.3189066
8	0xbf13e1e8	-0.5776658
9	0xbe45ccd2	-0.19316414
10	0x3c3a05eb	0.01135395
11	0xbe07f94c	-0.13278693
12	0xbe33e3e3	-0.175674
13	0xbebf556a	-0.37369853
14	0xbe61c202	-0.22046664
15	0x3d931a89	0.071827956
16	0x3d4c615f	0.049897548
17	0xbd1b04f2	-0.037846513
18	0xbded7cb9	-0.115960546
19	0xbbc58e6d	-0.0060289414
20	0x3e56e527	0.20985852
21	0x3e207ddb	0.1567301
22	0x3e5b4998	0.21414793
23	0x3ca4ee99	0.020133303
24	0x3dcf081f	0.10108971
25	0xbe412ee4	-0.18865544
26	0xbe46f377	-0.19428812
27	0xbe0caad7	-0.13737045
28	0xbd0a7664	-0.033804312
29	0x3e0f7bbd	0.14012046
30	0xbdf3d99a	-0.119067386
31	0xbe54b5fc	-0.20772547
32	0xbe1aea4c	-0.1512844
33	0xbe8f7564	-0.2801925
34	0x3db49e1c	0.088192195
35	0x3d0cf8c1	0.034416918
36	0x3d353fbb	0.04425023
37	0x3e0b159c	0.13582462
38	0x3da5318a	0.080660895
39	0x3d0ed058	0.03486666
40	0xbddeb0fc	-0.10873601
41	0x3db780c3	0.08960106
42	0xbb94bcba	-0.0045390995
43	0x3e8311a9	0.2559941
44	0x3dba3483	0.09092047
45	0x3e07c5dd	0.13259073
46	0xbd035207	-0.03206065
47	0xbd316ab4	-0.04331465
48	0x3cb2b55f	0.021815
49	0xbdf5553e	-0.11979149
50	0xbe2a5390	-0.16633439
51	0x3e43c4c3	0.19118027
52	0x3ca01e51	0.019545706
53	0xbe0dc4c6	-0.13844594
54	0xbe2be70e	-0.16787359
55	0xbe0e1500	-0.13875198
56	0x3dcb7922	0.099352136
57	0x3cef1130	0.029183
58	0x3e031ed9	0.12804736
59	0x3dc29f10	0.09502995
60	0xbe665788	-0.22494328
61	0xbd10b563	-0.035329234
62	0x3e5864a3	0.2113214
63	0x3daa56bc	0.083173245
64	0x3e2199ec	0.15781373
65	0x3c34af1c	0.011028077
66	0xbe3b683c	-0.18301481
67	0xbedca311	-0.4309316
68	0xbebadb65	-0.3649551
69	0xbdedd587	-0.11612993
70	0xbe3bc855	-0.1833814
71	0xbe2abc51	-0.166734
72	0xbdddfb48	-0.10838944
73	0xbd90b0bb	-0.07064959
74	0xbe4e6825	-0.20156915
75	0xbc103cf9	-0.0088035995
76	0x3df4d833	0.11955299
77	0x3c98aeaa	0.018637974
78	0x3ba443ea	0.005012979
79	0xbd121ef4	-0.03567405
80	0xbd82f33b	-0.06394049
81	0xbdd7b0bb	-0.105317555
82	0xbd5b73a2	-0.053577073
83	0x3d52b871	0.05144543
84	0x3d7df1b3	0.06199808
85	0xbc37443e	-0.011185704
86	0xbd21bdd0	-0.03948766
87	0xbe98773f	-0.29778478
88	0xbe0015ba	-0.12508288
89	0xbd2ea49c	-0.042637452
90	0x3e0325d7	0.12807404
91	0x3dbe1f85	0.092833556
92	0xbecb20ff	-0.39673612
93	0xbe376a3a	-0.17911616
94	0xbd250083	-0.04028369
95	0xbd7ba287	-0.061434295
96	0x3db32f81	0.08749295
97	0xbea58b68	-0.3233292
98	0xbe3f40d7	-0.18677078
99	0xbcedb33f	-0.029016135
100	0xbd803628	-0.062603295
101	0xbe9cd283	-0.30629358
102	0xbf06f74c	-0.52721095
103	0xbeea04b6	-0.4570672
104	0x3c2be841	0.010492385
105	0x3e4204a2	0.1894708
106	0x3e41649a	0.18886033
107	0x3d411152	0.04713566
108	0xba5e1d94	-0.00084730354
109	0xbdf21863	-0.11821058
110	0x3c2280b0	0.009918377
111	0x3da4c243	0.08044865
112	0x3e2ca6d3	0.16860513
113	0x3e58b8d8	0.21164262
114	0xbb7b05e9	-0.0038303083
115	0xbd373100	-0.044724464
116	0x3bae1fa5	0.005313831
117	0x3df86cf5	0.12130157
118	0xbd0b7615	-0.03404816
119	0x3e8fc321	0.2807856
120	0xbd90d70b	-0.07072266
121	0xbe3b0731	-0.18264462
122	0xbec41ad3	-0.38301715
123	0xbead7974	-0.33881724
124	0xbe6b10f0	-0.2295568
125	0x3d882c9d	0.06649134
126	0x3e55d4a7	0.20881902
127	0x3e07caaf	0.13260911
128	0x3e4e553f	0.20149706
129	0x3d703717	0.058646288
130	0xbdab9da0	-0.08379674
131	0xbde6c1cc	-0.112674326
132	0xbca9124e	-0.020638611
133	0x3e039b5f	0.12852238
134	0x3dbcc2e9	0.09216864
135	0xbe1b339f	-0.1515641
136	0xbe2dfe45	-0.16991527
137	0xbe0f8fc0	-0.1401968
138	0xbd976670	-0.07392585
139	0xbc6cf024	-0.014461551
140	0xbe72ff1f	-0.23730133
141	0x3bd103c2	0.006378622
142	0x3e81866c	0.25297868
143	0x3e03313e	0.12811753
144	0xbdcf266b	-0.101147495
145	0xbeabeb91	-0.3357816
146	0x3e4cd7d3	0.20004205
147	0x3e70414b	0.23462407
148	0x3df3a1d4	0.11896101
149	0xbd9d0585	-0.076670684
150	0x3def7c24	0.116936
151	0x3d140156	0.036134087
152	0xbcc61507	-0.024179948
153	0xbd73c5ae	-0.059514694
154	0x3d849fe2	0.06475808
155	0x3db21c9a	0.086968616
156	0x3dadd6f8	0.08488268
157	0x3df47978	0.11937231
158	0x3e26505a	0.16241589
159	0x3deb3b49	0.11485917
160	0xbca8824f	-0.020569948
161	0xbd9df991	-0.07713617
162	0xbd22ed41	-0.039777044
163	0xbd8eefc4	-0.069793254
164	0xbd25e1ed	-0.040498663
165	0xbd8369ed	-0.06416688
166	0xbe49dfdf	-0.19714306
167	0xbe50476f	-0.2033975
168	0xbe74e6ae	-0.23916122
169	0x3ccaef4c	0.024772309
170	0xbe0410c1	-0.12897016
171	0xbe2e9473	-0.17048816
172	0xbe1a25aa	-0.1505343
173	0xbe11abc0	-0.14225674
174	0xbc97bbf5	-0.018522242
175	0xbdcc8656	-0.0998656
176	0xbd65483d	-0.055977095
177	0x3d1c6e84	0.038191333
178	0x3d8dc213	0.06921782
179	0x3e6b2281	0.22962381
180	0x3dd154b1	0.10221232
181	0xbc23f713	-0.010007638
182	0x3e75585c	0.23959488
183	0x3e9ff93e	0.31244844
184	0x3da503f5	0.08057395
185	0xbe673d11	-0.22581889
186	0xbe13c74b	-0.14431493
187	0xbdf358d5	-0.11882178
188	0xbda1bc5f	-0.07897257
189	0x3dc49810	0.09599316
190	0xbe62dc11	-0.22154261
191	0xbe0c0369	-0.13673176
192	0x3e05a8d7	0.13052689
193	0x3db3b381	0.08774472
194	0x3e22e3a1	0.15907146
195	0x3da2b1d9	0.07944078
196	0x3d25c506	0.0404711
197	0x3d5ff38e	0.05467563
198	0x3d1f9a33	0.038965415
199	0xbd7cd0ed	-0.061722685
200	0x3d30a151	0.043122593
201	0x3d8b5eb3	0.06805172
202	0x3b7ad573	0.0038274198
203	0xbe854360	-0.26027966
204	0xbecd25e8	-0.40067983
205	0xbdb03c1e	-0.086052164
206	0xbdee5406	-0.1163712
207	0xbea0aa22	-0.313798
208	0xbe34ebb3	-0.17668037
209	0xbe0e36f3	-0.13888149
210	0x3df71f9c	0.12066576
211	0xbd50586f	-0.050865587
212	0x3cf95fc8	0.03044118
213	0x3e027ced	0.12742968
214	0x3df3bf0b	0.11901673
215	0x3e2bc361	0.1677375
216	0xbc9668e3	-0.01836056
217	0x3e3150c5	0.17315967
218	0x3e203110	0.15643716
219	0x3d547d89	0.051877532
220	0xbe268844	-0.16262919
221	0x3e574b1d	0.21024747
222	0x3d397c34	0.045284465
223	0xbde91af5	-0.11382095
224	0xbdce0218	-0.10058993
225	0xbe81b7d7	-0.2533557
226	0xbf267ce2	-0.65034306
227	0xbf0a5ba8	-0.54046106
228	0xbea47ceb	-0.32126555
229	0xbdeaa7be	-0.114577755
230	0xbeccb0a9	-0.3997853
231	0xbf3422b3	-0.70365447
232	0xbf6a94c7	-0.91633266
233	0xbf1a4e20	-0.6027546
234	0xbeff03ec	-0.4980768
235	0xbec8e47a	-0.39236814
236	0xbecbfbfa	-0.3984068
237	0xbf1292e9	-0.5725542
238	0xbf129631	-0.57260424
239	0xbea45c3d	-0.32101622
240	0xbde5bfaf	-0.11218201
241	0xbe376be8	-0.17912257
242	0xbd06f262	-0.032945998
243	0xbe2c876e	-0.16848537
244	0xbd906f1a	-0.07052441
245	0x3d2a3689	0.041555915
246	0x3dc6c124	0.097048074
247	0x3cee9460	0.029123485
248	0x3d9ae626	0.075634286
249	0xbc80de4d	-0.015731001
250	0x3e0db528	0.13838637
251	0xbdc31607	-0.09525686
252	0xbd267ebe	-0.040648215
253	0x3e629a36	0.2212914
254	0x3eb562ac	0.35426843
255	0x3dec833d	0.11548469

conv2.bias f4 [16]
0	0xbdb39ff7	-0.08770745
1	0xbdf6974d	-0.12040577
2	0x3e5e407a	0.21704283
3	0xbce7ee29	-0.028311806
4	0xbe4b862f	-0.19875406
5	0x3cafe6ae	0.021472301
6	0x3d302c2f	0.043010887
7	0xbe100312	-0.14063671
8	0xbc8125ed	-0.015765155
9	0xbdb62842	-0.08894397
10	0x3dfaedcd	0.12252388
11	0x3df7a56b	0.12092098
12	0x3e1ae383	0.15125851
13	0xbe35fa59	-0.17771281
14	0xbdcb7878	-0.09935087
15	0x3e56694a	0.20938602

fc1.weight f4 [120, 256]
0	0x3a02b644	0.0004986266
1	0x3e641098	0.22271955
2	0x3dedc50c	0.11609849
3	0xbddf5122	-0.10904147
4	0xbe1b2ead	-0.15154524
5	0x3d9845bc	0.07435176
6	0x3e1a9c60	0.15098715
7	0x3bd4f41e	0.0064988276
8	0x3c33c1c6	0.010971492
9	0x3c56161e	0.013066797
10	0xbea9fca4	-0.33200562
11	0xbefbb6de	-0.49162954
12	0xbd2ed4ab	-0.042683285
13	0xbb88e405	-0.0041775727
14	0xbebadd7f	-0.36497113
15	0xbedf40f0	-0.4360423
16	0x3dd5bf6a	0.104369
17	0x3dfb32bf	0.122655384
18	0x3e469c61	0.19395591
19	0x3cd8e997	0.026478572
20	0xbd9e7ec6	-0.07739024
21	0xbd536596	-0.05161055
22	0xbe298a2b	-0.16556613
23	0xbe703969	-0.234594
24	0xbe6c2c4d	-0.23063774
25	0xbd157b92	-0.0364948
26	0xbe895340	-0.26821327
27	0xbecd018f	-0.40040252
28	0xbe5eba64	-0.2175079
29	0xbd976b8a	-0.07393558
30	0xbea7b767	-0.32757112
31	0xbf0ac0db	-0.54200524
32	0xbe50e356	-0.20399222
33	0xbe574a02	-0.21024325
34	0xbec14143	-0.37745103
35	0xbe94375b	-0.28948483
36	0x3e823e51	0.2543817
37	0x3d206fd2	0.03916914
38	0xbdbe885a	-0.09303351
39	0x3da7fd5b	0.082026206
40	0x3d546ebf	0.05186343
41	0xbe30ee7b	-0.17278473
42	0x3d68137d	0.05665921
43	0x3e1b2261	0.15149833
44	0xbde97690	-0.11399567
45	0x3e8747df	0.2642202
46	0x3e8646fb	0.2622603
47	0x3e70f33c	0.23530287
48	0x3d0a75c3	0.033803713
49	0xbe2f23a2	-0.17103437
50	0xbd64351a	-0.055714704
51	0xbdef91c9	-0.11697728
52	0xbddf3ae7	-0.108999066
53	0xbd7e82fa	-0.062136628
54	0xbd82ad5b	-0.06380721
55	0xbd996854	-0.07490602
56	0xbd88e027	-0.06683379
57	0xbd46f72d	-0.04857557
58	0xbdf5517b	-0.11978432
59	0xbdec2ef1	-0.11532391
60	0xbe495324	-0.19660622
61	0xbe15e8a0	-0.1463952
62	0xbe051fbf	-0.13000391
63	0xbd30817b	-0.043092232
64	0x3e30523e	0.17218873
65	0x3d2878f2	0.041130967
66	0xbd2781a1	-0.040895108
67	0xbea6eb6b	-0.32601485
68	0xbe26bd7f	-0.16283225
69	0x3ddac298	0.10681647
70	0x3e476e5a	0.1947569
71	0xbc99a981	-0.018757584
72	0xbf0999b9	-0.5375019
73	0x3d0a4687	0.033758666
74	0x3a62e9d9	0.0008656062
75	0xbe154d97	-0.1458038
76	0xbd83b302	-0.064306274
77	0xbde731f3	-0.11288824
78	0xbf1367ef	-0.57580465
79	0xbf042092	-0.516122
80	0x3d9d961a	0.07694645
81	0x3d18bf85	0.037292022
82	0xbdd2b082	-0.102875724
83	0x3e525c00	0.20542908
84	0xbe5dffff	-0.21679686
85	0xbcd9269e	-0.026507672
86	0xbe251993	-0.16123037
87	0xbb27e4a8	-0.0025618467
88	0x3e413733	0.18868713
89	0x3e25d8e7	0.16196023
90	0x3e8031ff	0.25038144
91	0x3d3a3a82	0.045465954
92	0x3d24ec1f	0.040264245
93	0xbe1ec1f6	-0.15503678
94	0x3d8ac96d	0.067767
95	0xbe075e18	-0.13219488
96	0x3e009dc2	0.1256018
97	0xbec17cae	-0.37790436
98	0xbf324a79	-0.69644886
99	0x3e4ab3c4	0.19795138
100	0xbd1520dd	-0.036408294
101	0xbe06f1b9	-0.13178147
102	0x3d497319	0.04918203
103	0x3d2b85e6	0.041875742
104	0xbe148a7c	-0.14505953
105	0xbb8f5d78	-0.004375156
106	0x3e13cc4a	0.14433399
107	0x3da87253	0.082249306
108	0xbdb1825c	-0.08667442
109	0x3cce98d6	0.025219362
110	0x3e97f4fb	0.29679093
111	0x3cfe50b4	0.031044342
112	0xbed03305	-0.40663925
113	0xbd80062f	-0.062511794
114	0xbd742973	-0.05960984
115	0x3e122148	0.14270508
116	0xbdbf91ef	-0.093540065
117	0xbdcaa917	-0.098955326
118	0xbe3a3c69	-0.18187107
119	0x3e90f82b	0.28314337
120	0xbd5e97f4	-0.054344133
121	0xbd8c9206	-0.06863789
122	0xbef921ab	-0.486585
123	0xbea4ac0c	-0.3216251
124	0xbf320e54	-0.69553113
125	0xbf6ed5d1	-0.9329501
126	0xbf25cd45	-0.6476634
127	0xbe3606fe	-0.17776105
128	0xbd9c256f	-0.076243274
129	0x3cb1be17	0.021697087
130	0xbe81ce8d	-0.25352898
131	0xbdfb386b	-0.1226662
132	0x3e19b35d	0.15009828
133	0x3dccacde	0.09993909
134	0xbdc66317	-0.09686869
135	0x3e141e19	0.14464606
136	0x3e421b71	0.1895578
137	0xbd43f01e	-0.047836415
138	0xbec751b7	-0.3892953
139	0xbc9d2636	-0.01918326
140	0xbef21dab	-0.4728826
141	0xbeebbb75	-0.46041456
142	0xbef3899a	-0.4756592
143	0xbd53a9aa	-0.051675476
144	0x3e022c51	0.12712218
145	0x3da2fb57	0.079580955
146	0x3d8eeb53	0.06978478
147	0xbcc00cf8	-0.023443684
148	0xbde647d6	-0.1124417
149	0x3e1916e9	0.14950146
150	0x3d09b844	0.033622995
151	0xbdfc6a62	-0.123249784
152	0xbd112265	-0.03543319
153	0x3dcdabed	0.10042558
154	0xbdba2c7e	-0.090905175
155	0xbecc8cdb	-0.39951214
156	0x3c2054b0	0.009785816
157	0x3e02556f	0.12727903
158	0x3c87a501	0.016558172
159	0xbef40fa5	-0.47668186
160	0xbe674db4	-0.22588235
161	0xbef1986d	-0.47186604
162	0xbee0cac0	-0.43904686
163	0xbdc7ed59	-0.09762067
164	0x3da38ab0	0.07985437
165	0xbd438cf3	-0.04774184
166	0xbdd9cfd1	-0.10635341
167	0xbcfd5e5d	-0.030928785
168	0x3df23fc4	0.118285686
169	0xbecf8157	-0.40528366
170	0x3d863f79	0.06555075
171	0xbbd15d9b	-0.0063893325
172	0xbea0ec0d	-0.31430092
173	0xbc5fed64	-0.013667438
174	0x3d864ac0	0.06557226
175	0x3ea46bf3	0.3211361
176	0xbe0ff535	-0.14058383
177	0xbe7890bd	-0.24273963
178	0xbf2e010b	-0.6797034
179	0xbee8fc9a	-0.4550522
180	0xbdad9a09	-0.084766455
181	0xbe333bfe	-0.17503354
182	0xbd76d940	-0.06026578
183	0xbee388d1	-0.4444032
184	0x3e4497cf	0.19198535
185	0x3e55e658	0.2088865
186	0x3e0ebe0f	0.13939689
187	0x3e4c21e9	0.1993481
188	0xbea0861c	-0.31352317
189	0xbe20b51b	-0.15694086
190	0x3da793dc	0.08182499
191	0x3d1ea17c	0.038728222
192	0xbdb1869a	-0.08668251
193	0xbea450ef	-0.32092997
194	0xbe6bde0c	-0.23033923
195	0x3d8f3417	0.06992357
196	0x3e8e13a0	0.27749348
197	0x3dbff6bc	0.09373233
198	0xbc4709b0	-0.012148306
199	0x3db53f87	0.088500075
200	0x3e06a0da	0.13147298
201	0x3e059c59	0.13047923
202	0x3e2271da	0.15863743
203	0x3d5cf7c0	0.05394721
204	0x3dba6b61	0.09102512
205	0x3e553d4d	0.20824166
206	0xbcf6ada9	-0.030112104
207	0xbe51801a	-0.20459023
208	0xbd720d0f	-0.059094485
209	0xbe3baf51	-0.18328597
210	0xbe1016c7	-0.14071189
211	0x3eb1246e	0.34598106
212	0x3df64f84	0.12026885
213	0xbdd9336c	-0.10605511
214	0x3d93bf62	0.07214238
215	0x3e92196e	0.28535026
216	0x3b4c83c0	0.0031206459
217	0xbdbbc07d	-0.091675736
218	0xbd8be0b8	-0.06829971
219	0x3d01f4aa	0.03172747
220	0x3b9b6c03	0.0047431006
221	0x3e64ecf2	0.22356012
222	0x3ccc07d6	0.02490608
223	0x3e525ce0	0.20543242
224	0x3e4462b0	0.19178271
225	0x3e2c08f2	0.16800287
226	0xbd838f46	-0.064238116
227	0xbd2a548d	-0.04158454
228	0x3d952526	0.07282476
229	0x3c4ad627	0.012380159
230	0x3d2300bd	0.039795626
231	0xbe2c9807	-0.16854869
232	0xbe48455d	-0.1955771
233	0xbf06036d	-0.5234898
234	0xbef82357	-0.48464462
235	0x3db5ac67	0.08870774
236	0xbef1cc63	-0.47226247
237	0xbee231ef	-0.4417872
238	0xbd91b7d4	-0.071151406
239	0x3eb98f59	0.36242178
240	0x3c90e319	0.017686414
241	0x3e3709eb	0.17874877
242	0xbe0579c8	-0.13034737
243	0xbebb2c94	-0.36557448
244	0x3db11b23	0.08647754
245	0x3e2aad77	0.16667734
246	0x3d928008	0.07153326
247	0xbdc5e48b	-0.09662732
248	0x3c9a3b45	0.01882709
249	0x3cdc0322	0.026856963
250	0x3e4ebc5a	0.20189038
251	0x3e59532f	0.21223138
252	0x3ec2519c	0.37952888
253	0x3e980292	0.2968946
254	0x3e211529	0.15730728
255	0xbd2aac65	-0.041668314

fc1.bias f4 [120]
0	0xbc522195	-0.012825389
1	0x3d9a65de	0.07538961
2	0xbe181686	-0.14852342
3	0x3d20c679	0.03925178
4	0xbd33a909	-0.043862376
5	0xbb94183e	-0.0045194915
6	0xbb25e874	-0.0025315555
7	0x3da64766	0.08119087
8	0x3cf6508b	0.030067703
9	0xbdf50650	-0.11964095
10	0xbd8c64f5	-0.068551935
11	0xbdb6c534	-0.08924332
12	0x3c1bba54	0.009504873
13	0x3cb2d118	0.02182822
14	0x3ded8c78	0.11599058
15	0xbc151bb4	-0.009100843
16	0x3dd59762	0.104292646
17	0xbbd1daa6	-0.0064042388
18	0xbeb21c4b	-0.3478721
19	0x3d161e36	0.036649905
20	0xbd98215f	-0.0742824
21	0xbd746268	-0.05966416
22	0x3dce1502	0.10062601
23	0x3c1e1221	0.009647877
24	0x3e16d4ed	0.14729662
25	0x3e235418	0.15950048
26	0xbdb2e773	-0.08735552
27	0x3d1bd906	0.038048767
28	0x3c052c99	0.008128309
29	0x3da01a49	0.078175135
30	0xbd817c3e	-0.063225254
31	0x3ccb5180	0.024819136
32	0xbe0d4816	-0.1379703
33	0x3d9dcbf6	0.07704918
34	0xbe97c799	-0.29644468
35	0xbcc37d6e	-0.02386352
36	0xbe3e6d03	-0.18596272
37	0x3c756a18	0.014978908
38	0x3cd11b7e	0.025525805
39	0x3defbc1e	0.117058024
40	0xbab5d856	-0.0013873677
41	0xbba36467	-0.004986334
42	0x3d84bac7	0.064809375
43	0x3ca90881	0.020633938
44	0x3d6a3230	0.05717677
45	0x3de79bb4	0.11308995
46	0xbb5a4660	-0.0033306107
47	0xbe4fd350	-0.20295453
48	0xbd8f0eac	-0.0698522
49	0xbd1774d8	-0.036976665
50	0xbd2416b9	-0.040060733
51	0xbe251a10	-0.16123223
52	0xbd43571e	-0.047690503
53	0x3e6d06b2	0.23147085
54	0x3cb088b2	0.021549556
55	0xbea09320	-0.31362247
56	0x3cb4f126	0.022087645
57	0xbe7ad2db	-0.24494497
58	0xbd3d1c44	-0.046169534
59	0xbe59f7da	-0.21285954
60	0xbdacf149	-0.08444459
61	0xbe5fc818	-0.21853673
62	0xbe1b766a	-0.1518189
63	0xbd999318	-0.07498759
64	0x3d520b9a	0.051280595
65	0xbbc89bc0	-0.0061220825
66	0x3d093082	0.033493526
67	0x3d7ca804	0.06168367
68	0x3d913efb	0.07092091
69	0xbda1f4aa	-0.07907994
70	0x3daeb59f	0.08530735
71	0xbb3aff16	-0.002853339
72	0xbd387e1a	-0.045042135
73	0xbdcb6300	-0.09930992
74	0x3d5dc157	0.05413946
75	0x3cdc5b54	0.026899017
76	0xbdbc9956	-0.09208934
77	0x3c688c0a	0.014193544
78	0xbc762430	-0.015023276
79	0xbe14592b	-0.1448714
80	0xbe22f1e4	-0.15912586
81	0xbd987754	-0.07444635
82	0xbd4b82bf	-0.049685236
83	0x3e36cb47	0.17850982
84	0xbdcb7162	-0.099337354
85	0x3df46a46	0.119343325
86	0xbc5ca712	-0.013467567
87	0xbe54826a	-0.20752874
88	0xbd181495	-0.037129004
89	0xbc7ebe35	-0.015548279
90	0xbd7444b4	-0.059635833
91	0xbe00d645	-0.12581737
92	0xbbac8113	-0.0052644103
93	0x3cc62b79	0.024190651
94	0x3d08fce8	0.033444315
95	0xbcc955ae	-0.024576988
96	0x3dd2ae4f	0.10287153
97	0x3dc494e9	0.09598715
98	0x3a000d65	0.00048848084
99	0x3dff7834	0.12474099
100	0xbd6338ab	-0.055473965
101	0xbe8369a6	-0.2566654
102	0xbdec92bf	-0.11551427
103	0xbdc4a6bd	-0.09602115
104	0xbe01d00a	-0.12677017
105	0x3dcc580a	0.099777296
106	0xbde30231	-0.11084402
107	0x3cd63003	0.02614594
108	0xbe83fca3	-0.25778684
109	0xbda95b87	-0.082694106
110	0x3d979d32	0.074030295
111	0xbd797f42	-0.060912378
112	0xbccd9cf7	-0.02509926
113	0xbd1dd0ba	-0.038529135
114	0xbe17efd4	-0.14837581
115	0x3dc42f09	0.09579284
116	0x3cf625cc	0.03004732
117	0xbb95c6a0	-0.004570797
118	0xbd0adb93	-0.03390081
119	0xbcd5d784	-0.026103742

fc2.weight f4 [84, 120]
0	0xbeb17479	-0.34659174
1	0x3e61cfbe	0.22051904
2	0x3e051188	0.12994969
3	0x3dd77bbc	0.10521647
4	0x3c54f3c7	0.012997574
5	0x3c6be5dc	0.014398064
6	0xbe3666f7	-0.17812715
7	0x3d300424	0.0429727
8	0xbc3046f4	-0.010759104
9	0x3eaf1b2e	0.34200424
10	0xbd1bedff	-0.038068768
11	0x3c92cfb6	0.01792131
12	0xbd0a8700	-0.033820152
13	0x3e700bec	0.23442048
14	0x3d16ac2a	0.036785282
15	0xbe0f132c	-0.13972157
16	0x3d472a08	0.04862407
17	0xbdfe6f3e	-0.124235615
18	0x3d1882ae	0.037234
19	0x3d793212	0.060838766
20	0xbd27293a	-0.0408108
21	0xbd08e77b	-0.033423882
22	0xbca8fac6	-0.02062739
23	0xbecd6e0f	-0.4012303
24	0x3d994617	0.07484072
25	0x3ddf9f44	0.109190494
26	0xbdc0afb3	-0.09408512
27	0x3d59bff5	0.05316158
28	0xbea1bc5c	-0.3158902
29	0x3cfaa2fc	0.030595295
30	0xbceed82e	-0.029155817
31	0x3e00c31c	0.12574428
32	0x3c4754ad	0.012166184
33	0xbdb43e3f	-0.08800935
34	0xbe07ea06	-0.13272867
35	0xbe5878bb	-0.21139805
36	0xbe1069df	-0.14102887
37	0xbc03b88a	-0.008039603
38	0x3c704fb0	0.0146674365
39	0x3d8c3418	0.068458736
40	0x3e410c96	0.18852457
41	0x3c0677d4	0.00820728
42	0x3d29536b	0.04133932
43	0x3c8a26b5	0.01686416
44	0xbe0abb6b	-0.13548057
45	0x3e88ef21	0.2674494
46	0xbe8485ae	-0.2588324
47	0xbe30c2aa	-0.17261758
48	0xbeaec2d7	-0.34133026
49	0xbe3b5510	-0.18294168
50	0x3dab3a47	0.08360725
51	0x3d52b9f7	0.05144688
52	0x3d1bf931	0.038079444
53	0x3da0690a	0.078325346
54	0x3e407326	0.18793926
55	0x3e354c11	0.17704798
56	0xbcd52832	-0.026020143
57	0x3cf736e2	0.030177537
58	0x3d7cc6bc	0.061712965
59	0x3e09eca7	0.13469182
60	0xbe12ec71	-0.14348008
61	0x3cccfb6b	0.02502223
62	0xbe8dfbd8	-0.27731204
63	0xbe41dbdf	-0.1893153
64	0x3e7ba653	0.24575166
65	0x3e4143ae	0.18873474
66	0x3ca98d75	0.020697335
67	0xbdf1c632	-0.11805381
68	0x3d085343	0.03328253
69	0xbdab8240	-0.083744526
70	0x3d93558e	0.07194053
71	0xbe807faf	-0.25097415
72	0x3d639595	0.055562574
73	0xbde1b81c	-0.11021444
74	0xbe79c112	-0.24390057
75	0xbe576a4c	-0.21036643
76	0x3cbf23d8	0.023332521
77	0x3d9b49aa	0.0758241
78	0xbd53e0ce	-0.051728062
79	0xbd994a7d	-0.07484911
80	0x3d2172f4	0.03941627
81	0x3d926cc4	0.07149652
82	0x3d1b64b3	0.03793783
83	0x3e774ded	0.2415082
84	0x3dd95866	0.10612564
85	0x3d272662	0.04080809
86	0xbeb0bd09	-0.34519222
87	0x3e9355e8	0.2877648
88	0x3c67b587	0.014142401
89	0xbe376de7	-0.17913018
90	0xbed8bfbd	-0.42333785
91	0xbdad5ea5	-0.08465318
92	0x3dc8aee1	0.097989805
93	0xbe4228a3	-0.18960814
94	0xbe506636	-0.2035149
95	0x3ce18621	0.027529778
96	0x3b83e660	0.0040252656
97	0x3d9256b9	0.07145447
98	0xbd986b65	-0.07442359
99	0x3dacee85	0.084439315
100	0x3db0d7cc	0.0863491
101	0xbd4c71e0	-0.049913287
102	0xbdf4d90f	-0.11955463
103	0x3d0b1688	0.033957034
104	0x3cb21d13	0.02174238
105	0x3c9c93dc	0.019113474
106	0x3d3e0ae8	0.04639712
107	0xbdc52cb3	-0.09627666
108	0xbd672014	-0.056427076
109	0xbd9980f7	-0.07495301
110	0x3d9f6434	0.07782784
111	0xbdc3b55d	-0.09556077
112	0xbe158ae9	-0.14603771
113	0xbeb16966	-0.34650725
114	0xbd526643	-0.051367056
115	0xbd24a896	-0.04019984
116	0x3ced0b5e	0.028936084
117	0x3dc5397c	0.09630105
118	0x3e2dd24f	0.16974758
119	0x3deb0d41	0.11477137
120	0xbe9fe5db	-0.31230053
121	0xbdce7793	-0.10081401
122	0x3e8f8918	0.28034282
123	0xbd91b265	-0.07114104
124	0x3e4c228a	0.1993505
125	0xbd861e53	-0.06548753
126	0xbe6cad8c	-0.23113078
127	0x3da8fdc1	0.08251525
128	0xbd107dae	-0.035276107
129	0x3cc90c3e	0.02454197
130	0xbdd977e9	-0.10618574
131	0xbd178b29	-0.036997948
132	0xbdcbeadb	-0.099569045
133	0x3d0778ea	0.033074297
134	0x3c2cb81a	0.01054194
135	0x3b2c4a21	0.0026289301
136	0x3e00fcae	0.1259639
137	0xbde8c972	-0.11366548
138	0xbe1a190e	-0.1504862
139	0x3e5e4647	0.21706496
140	0xbe458018	-0.19287145
141	0xbd1d7de1	-0.038450126
142	0x3d19a4d2	0.0375107
143	0xbe8169a7	-0.2527592
144	0x3e6bfd71	0.23045899
145	0x3cc0083e	0.02344143
146	0x3d51b863	0.051201236
147	0x3eb0cc45	0.34530845
148	0xbe394caf	-0.18095659
149	0x3d826e0a	0.063686445
150	0x3d0380a3	0.0321051
151	0x3e7c3557	0.24629723
152	0x3e040cf3	0.12895565
153	0x3ce86e69	0.02837296
154	0xbdbec212	-0.0931436
155	0xbe3c010c	-0.18359774
156	0xbe61bf18	-0.22045553
157	0x3c5b374b	0.013379882
158	0xbd7f9937	-0.062401976
159	0xbd64e5a8	-0.05588308
160	0x3e066c33	0.13127212
161	0x3d098e6c	0.03358309
162	0x3d05b35b	0.03264175
163	0x3cf06e58	0.029349491
164	0xbea38a82	-0.3194161
165	0x3e9bea6a	0.3045228
166	0xbd8ebb5c	-0.0696933
167	0xbe0345d7	-0.1281961
168	0xbe7218b7	-0.2364224
169	0xbd09f5f2	-0.033681817
170	0xbd0f1424	-0.034931317
171	0xbe4a5e96	-0.19762644
172	0xbc752a95	-0.014963766
173	0x3e8262d1	0.25466016
174	0xbca8a9aa	-0.020588715
175	0x3e7be6bd	0.24599738
176	0x3ccf1dbd	0.025282735
177	0xbe6e9403	-0.2329865
178	0x3c0d7862	0.0086346585
179	0x3e3ce3fc	0.18446344
180	0xbe17f429	-0.14839233
181	0x3e2790fc	0.16363901
182	0xbe60a326	-0.21937236
183	0xbe8e84fd	-0.27835837
184	0x3dc6e992	0.09712519
185	0xbdf48331	-0.11939085
186	0xbcabedd5	-0.02098743
187	0xbd6750a4	-0.05647339
188	0xbd80e900	-0.06294441
189	0xbbf0acd4	-0.0073448215
190	0xbce95bb0	-0.028486103
191	0xbe154633	-0.1457756
192	0x3cb89dd5	0.022536198
193	0xbe1a1266	-0.15046081
194	0xbd82301e	-0.06356834
195	0xbe2309a6	-0.1592165
196	0xbd6b680f	-0.057472285
197	0xbde15ef0	-0.11004436
198	0xbd93a3b0	-0.07208955
199	0xbead38e8	-0.3383248
200	0xbe3696f7	-0.17831026
201	0xbbdaf4d7	-0.006682019
202	0x3c00e5aa	0.007867256
203	0x3e89cf94	0.26916182
204	0xbd448e8e	-0.047987513
205	0x3dabf02b	0.08395418
206	0xbed4b86f	-0.41546962
207	0x3ece8201	0.4033356
208	0x3d2b53fd	0.041828144
209	0xbe4d63f4	-0.2005766
210	0xbe02e162	-0.12781289
211	0x3d947f6f	0.072508685
212	0x3e183c6e	0.14866802
213	0xbe537e85	-0.20653732
214	0xbe8f1762	-0.27947527
215	0x3d286518	0.041112036
216	0x3b724db1	0.0036972577
217	0x3d91bdf8	0.07116312
218	0xbdc6c9c3	-0.09706452
219	0x3d6ee16f	0.05832046
220	0xbd7a8007	-0.061157253
221	0x3de9de96	0.11419408
222	0x3d94a591	0.07258142
223	0x3dda7c14	0.10668197
224	0x3dbe4dd5	0.09292189
225	0x3e377591	0.17915942
226	0xbca46727	-0.020068718
227	0xbe65858a	-0.22414222
228	0xbdf822a8	-0.12115985
229	0x3ccc4fc6	0.024940383
230	0x3e25de94	0.16198188
231	0xbe059b5f	-0.1304755
232	0xbd2cb7ae	-0.042167358
233	0xbd25579c	-0.040366754
234	0xbdb21992	-0.086962834
235	0xbc92017f	-0.017822979
236	0xbd497e03	-0.04919244
237	0xbc46e735	-0.012140085
238	0x3d14fe48	0.036375314
239	0xbd1e0561	-0.03857935
240	0x3da43dea	0.08019622
241	0xbd31155c	-0.04323326
242	0x3e46fb17	0.1943172
243	0x3e202fd0	0.15643239
244	0x3b7205a0	0.0036929622
245	0x3decc0aa	0.11560185
246	0x3d99e545	0.07514433
247	0xbdd9946a	-0.10624011
248	0xbdf0496d	-0.11732755
249	0x3e7e7b7b	0.24851792
250	0x3d4723ac	0.048618004
251	0xbd209daa	-0.03921286
252	0xbc87b484	-0.016565569
253	0x3e730e25	0.23735864
254	0xbe8abf34	-0.27099
255	0xbeafa985	-0.3430902

fc2.bias f4 [84]
0	0x3e03c408	0.12867749
1	0x3de8940d	0.113563634
2	0x3e3994eb	0.18123214
3	0xbe33e2f4	-0.17567044
4	0x3e86eaa4	0.26350892
5	0x3e940917	0.28913185
6	0x3e9bdec9	0.3044341
7	0x3e9aac59	0.30209616
8	0x3e60aac1	0.21940137
9	0x3de821e4	0.11334589
10	0x3e3d1ccd	0.18468018
11	0x3e3d17ef	0.18466161
12	0x3e911ec5	0.28343788
13	0x3e652fd3	0.22381525
14	0x3e711bd4	0.23545772
15	0x3e9acdbf	0.30235097
16	0x3e9792b0	0.296041
17	0xbe6c38a8	-0.23068488
18	0x3e04a0d7	0.1295198
19	0xbe271157	-0.16315208
20	0x3e4f2d86	0.2023221
21	0x3e7ac17a	0.24487868
22	0xbea26c7e	-0.31723398
23	0x3e7b699a	0.24552003
24	0x3de1693d	0.11006401
25	0x3d660216	0.056154333
26	0x3e2f671d	0.17129178
27	0x3eb11759	0.34588125
28	0x3dcfa82d	0.10139499
29	0xbe4a052b	-0.19728534
30	0x3cba4143	0.022736197
31	0x3de736cc	0.112897485
32	0x3ebffc3d	0.3749713
33	0x3e16324e	0.14667627
34	0x3e02fedb	0.12792532
35	0x3ebebc30	0.3725295
36	0x3e45b41c	0.19306988
37	0x3e6f9db3	0.23400001
38	0x3eacced0	0.33751535
39	0x3e8ce240	0.27516365
40	0x3e841053	0.25793704
41	0x3ed961a9	0.4245732
42	0x3dccb25a	0.09994955
43	0x3e4b7e4a	0.19872394
44	0x3e5acc36	0.21366963
45	0xbe37de6e	-0.17955944
46	0x3e1fbcd2	0.15599373
47	0x3e6a10d7	0.22857986
48	0x3e6b9d84	0.23009306
49	0x3dc4c22f	0.0960735
50	0xbe23d38c	-0.15998667
51	0x3e81cf78	0.253536
52	0x3dc1caae	0.09462486
53	0x3e69470a	0.22781006
54	0x3e83a0b2	0.25708538
55	0x3e91fb3e	0.28511995
56	0x3d0af878	0.033928365
57	0xbddf551b	-0.109049045
58	0x3df4f023	0.11959865
59	0x3dbf3606	0.09336476
60	0x3e2fbb71	0.17161347
61	0x3bd9af99	0.0066432473
62	0x3da30cc1	0.07961417
63	0x3e7c22dc	0.24622673
64	0xbe2aeb18	-0.16691244
65	0x3da60e0c	0.08108148
66	0x3d9cceb2	0.076566115
67	0xbdde261c	-0.108471125
68	0x3e00fda8	0.12596762
69	0x3e8beefa	0.27330762
70	0x3e416b6d	0.18888636
71	0xbddbbd08	-0.10729414
72	0x3d7438c6	0.059624456
73	0x3e95e389	0.29275158
74	0x3e24cf38	0.16094673
75	0x3e467d86	0.19383821
76	0x3cde0c5e	0.027105507
77	0xbeb029f0	-0.34406996
78	0xbde615ba	-0.11234613
79	0xbe8c577c	-0.27410495
80	0x3ebef22a	0.37294132
81	0x3e977c7f	0.2958717
82	0x3e88979a	0.26678163
83	0xbdb46011	-0.08807386

fc3.0.weight f4 [10, 84]
0	0xbc1abe83	-0.009444836
1	0xbdb4dac7	-0.08830791
2	0xbe46ef0c	-0.19427127
3	0xbe58fa07	-0.21189128
4	0x3d224182	0.039613254
5	0xbecbf31b	-0.39833912
6	0xbdf568f0	-0.11982906
7	0x3cc4b8fd	0.02401399
8	0x3e1e19f2	0.15439585
9	0xbe0e8375	-0.13917334
10	0x3daf8c9c	0.08571741
11	0x3e0f38bb	0.13986485
12	0xbec85290	-0.3912549
13	0xbde4ffdf	-0.11181616
14	0x3d9b1357	0.07572048
15	0xbb8c2fc2	-0.004278154
16	0x3d12b53b	0.035817366
17	0xbe164303	-0.14674
18	0x3cc7b6d8	0.024379179
19	0xbe91c569	-0.28470924
20	0xbe3a2c42	-0.18180946
21	0xbe1ad9ec	-0.15122193
22	0xbed5a673	-0.41728553
23	0xbb018c88	-0.00197676
24	0x3ae52482	0.0017482194
25	0x3d31c9bf	0.04340529
26	0xbe436075	-0.19079764
27	0xbe409495	-0.1880668
28	0xbe4f80a2	-0.20263913
29	0xbe988eba	-0.29796392
30	0x3e1c4190	0.15259385
31	0xbe64c2de	-0.22339961
32	0xbe920dc0	-0.28526115
33	0xbeafacf0	-0.34311628
34	0xbe2a0ec5	-0.16607197
35	0x3dac595e	0.08415483
36	0x3bf77298	0.0075515024
37	0x3e67e668	0.22646487
38	0x3df989d6	0.12184493
39	0x3c902701	0.017596724
40	0xbe928737	-0.28618786
41	0xbed6d577	-0.41959736
42	0xbd922db6	-0.07137625
43	0xbeaca3be	-0.33718675
44	0x3e001c73	0.12510853
45	0x3b5ec425	0.0033991423
46	0xbe221711	-0.15829112
47	0xbea11db2	-0.31467968
48	0xbe4549e0	-0.19266462
49	0xbe914962	-0.283763
50	0xbf1610ea	-0.5861956
51	0xbea6c4a2	-0.32571894
52	0x3df94258	0.12170857
53	0xbe7e10f5	-0.24811156
54	0x3def10fe	0.11673163
55	0x3c6007ad	0.013673705
56	0x3e35786e	0.17721722
57	0xbea67a76	-0.32515305
58	0x3def5b07	0.11687284
59	0xbd275e10	-0.04086119
60	0x3cc8df39	0.024520503
61	0xbc9d4a4f	-0.019200472
62	0x3e580f15	0.21099503
63	0xbdb682d6	-0.08911674
64	0xbe371f6c	-0.1788308
65	0x3cdda61c	0.027056746
66	0xbeed6738	-0.46367812
67	0x3d7ac765	0.061225314
68	0x3e10231b	0.14075892
69	0xbd9e373e	-0.0772538
70	0xbea3f0a7	-0.3201954
71	0xbd7a3e24	-0.06109442
72	0x3e1840da	0.14868489
73	0x3cd9c0bd	0.026581163
74	0xbe0cf00e	-0.13763449
75	0x3db4ae58	0.08822316
76	0x3d8d436e	0.06897627
77	0xbeb637cd	-0.35589448
78	0xbe36f01a	-0.17865029
79	0xbd142b54	-0.036174133
80	0x3d732810	0.05936438
81	0xbeb19d2b	-0.34690222
82	0x3d6933ef	0.056934293
83	0xbe719f74	-0.23595983
84	0x3dee87ae	0.116469726
85	0x3e3d0fc1	0.18463041
86	0xbe044901	-0.12918474
87	0xbe876827	-0.2644665
88	0x3e0fd6b5	0.14046748
89	0xbeaaba15	-0.33345094
90	0x3e0dc8e0	0.13846159
91	0xbe0e85d7	-0.13918243
92	0xbe7ee43a	-0.24891749
93	0xbe341f6e	-0.17590114
94	0x3dcd3665	0.100201406
95	0xbe7d2786	-0.24722108
96	0x3d69a499	0.05704174
97	0xbe186024	-0.14880425
98	0xbefba632	-0.49150234
99	0xbe800dba	-0.25010473
100	0x3bc7c322	0.0060962597
101	0xbeea7784	-0.45794308
102	0xbf0de245	-0.55423385
103	0xbe3e329d	-0.18573995
104	0xbe2a98d5	-0.16659863
105	0x3e13f6f7	0.14449678
106	0x3dd32803	0.10310366
107	0xbda0534e	-0.07828389
108	0xbe37c8fe	-0.17947766
109	0x3d84da6e	0.06486975
110	0x3d20ad62	0.03922785
111	0x3e05864c	0.13039511
112	0xbd82a919	-0.06379909
113	0x3de2cdd4	0.11074415
114	0xbd48ae89	-0.048994575
115	0xbe8a962b	-0.27067694
116	0x3e1a243f	0.1505289
117	0x3e647d3d	0.223134
118	0x3e843a87	0.25825903
119	0xbde2cb04	-0.110738784
120	0x3e0fbf8c	0.14037913
121	0xbe719d39	-0.23595132
122	0x3e2614ad	0.16218825
123	0xbe8eee57	-0.27916214
124	0xbe65f874	-0.22458059
125	0x3cf5f50e	0.030024078
126	0xbdac14da	-0.084024146
127	0xbe56d2db	-0.20978872
128	0xbed8ef60	-0.4237013
129	0xbe0c12cc	-0.13679045
130	0xbe27a823	-0.16372733
131	0x3daca8ef	0.08430659
132	0xbe67177b	-0.22567551
133	0xbdd28486	-0.10279183
134	0xbe5fa14d	-0.21838875
135	0x3e0f0b78	0.13969219
136	0xbdead076	-0.11465542
137	0x3e2d208f	0.16906951
138	0xbe06838a	-0.13136116
139	0xbeb85a00	-0.36006165
140	0x3db630de	0.088960394
141	0xbe6ecf4a	-0.23321262
142	0x3e461d3b	0.19347088
143	0xbe49e0cd	-0.19714661
144	0x3d867ebc	0.065671414
145	0xbe95f8b5	-0.2929131
146	0xbe954dc9	-0.29160908
147	0xbeac73a8	-0.3368199
148	0xbe6b249b	-0.22963183
149	0x3e4cfc9e	0.20018241
150	0x3bc6287b	0.006047306
151	0xbdb0dee9	-0.08636267
152	0xbdb43dd1	-0.08800853
153	0xbf076938	-0.52894926
154	0xbddfca64	-0.10927275
155	0xbeff8984	-0.49909604
156	0xbf03e6da	-0.51524127
157	0xbe550824	-0.20803887
158	0x3e16f35e	0.14741275
159	0x3d2090c3	0.039200556
160	0xbde0e61b	-0.10981389
161	0xbe57a124	-0.21057564
162	0xbb298c5b	-0.0025871012
163	0xbd8648cb	-0.06556853
164	0xbe78fcfa	-0.24315253
165	0x3e07864f	0.13234828
166	0xbe438a03	-0.19095616
167	0xbe898383	-0.26858148
168	0x3de23911	0.11046041
169	0x3c8f61a0	0.017502606
170	0x3e13c195	0.14429314
171	0xbea01f54	-0.312739
172	0xbcf96508	-0.030443683
173	0xbe752c88	-0.23942769
174	0x3df73e5a	0.120724395
175	0x3de7fdab	0.1132768
176	0xbe332a12	-0.17496517
177	0x3daf870f	0.08570682
178	0xbe0152a0	-0.12629175
179	0xbe673252	-0.2257779
180	0xbe337980	-0.17526817
181	0xbd75b690	-0.05998856
182	0xbe0bbdac	-0.13646573
183	0x3d7a2709	0.061072383
184	0xbe1ebf38	-0.15502632
185	0x3dab0c31	0.08351935
186	0xbe14d9af	-0.14536165
187	0xbd72cfd4	-0.05928023
188	0xbde6eaec	-0.112752765
189	0x3dc0879e	0.09400867
190	0x3d8cf350	0.06882346
191	0x3db42928	0.087969124
192	0xbcb50f23	-0.022101944
193	0xbe1b1a8d	-0.15146847
194	0x3a017a0f	0.00049391476
195	0x3c37bcfe	0.011214493
196	0xbe017d9a	-0.1264557
197	0xbdeb5a13	-0.1149179
198	0x3e1e70bf	0.15472697
199	0x3d6f8cd9	0.058483932
200	0xbea41d4b	-0.320536
201	0x3df34554	0.11878458
202	0xbdc933c5	-0.098243274
203	0x3e0335b6	0.12813458
204	0x3dab1cf8	0.08355135
205	0x3dcc8951	0.099871285
206	0xbd3c9f79	-0.046050522
207	0xbe4c3e6e	-0.1994569
208	0xbd46a474	-0.04849668
209	0x3d8dea3c	0.06929442
210	0xbcab4b53	-0.02090994
211	0x3de03701	0.10947991
212	0xbeac22ea	-0.33620387
213	0x3d10b650	0.035330117
214	0xbdc010a9	-0.09378178
215	0x3e0ced1b	0.13762324
216	0x3e20bad5	0.15696271
217	0x3dfea45d	0.124336936
218	0xbe966a89	-0.29378155
219	0x3e1da58a	0.1539518
220	0xbe35ca9c	-0.1775307
221	0x3da07d53	0.07836404
222	0xbdd61a44	-0.104542285
223	0x3d5fdbdb	0.05465303
224	0xbdbc83bb	-0.09204813
225	0x3ccc6419	0.024950074
226	0xbd4067e1	-0.046974067
227	0xbeb427d6	-0.35186642
228	0xbe1aa1bc	-0.1510076
229	0x3e15d3d5	0.14631589
230	0xbe8c581c	-0.27410972
231	0x3d874e2b	0.06606706
232	0xbe64507b	-0.22296326
233	0xbead1a54	-0.3380915
234	0x3d9770f2	0.073945895
235	0xbe0c9057	-0.13726936
236	0x3e0acb59	0.13554133
237	0xbe7d237e	-0.2472057
238	0xbe5416d0	-0.20711827
239	0xbe75c738	-0.24001777
240	0xbd94a252	-0.07257523
241	0x3d852804	0.06501773
242	0xbdd5bbc3	-0.10436203
243	0x3e097372	0.13422945
244	0xbd26a02e	-0.040680103
245	0xbd7296e2	-0.059225924
246	0xbed5e144	-0.41773427
247	0xbcb55369	-0.0221345
248	0x3df39771	0.118941195
249	0xbe59fb02	-0.21287158
250	0xbc38563f	-0.011251031
251	0xbed35859	-0.4127834
252	0xbe04ac11	-0.12956263
253	0xbe0de337	-0.13856207
254	0xbdafabc0	-0.085776806
255	0xbb48bc8e	-0.0030629965

fc3.0.bias f4 [10]
0	0x3d86a14f	0.06573736
1	0x3d640452	0.055668183
2	0x3db3b76e	0.08775221
3	0x3cc12c5a	0.023580719
4	0x3d02c243	0.031923544
5	0x3b9058e0	0.004405126
6	0xbe252340	-0.16126728
7	0xbdee6ae5	-0.11641482
8	0x3ddcac9c	0.1077511
9	0xbda47c43	-0.080315135
